models/temporal_gnn/saved_models/dgd/dgd_HTGN_seed_1024.pth (torch, 424027 bytes, 18 tensors)

feat f4 [771, 128]
-0.054945193 0.20717785 -1.7674891 0.09457611 -1.6106917 0.17348424 0.5966348 0.0827228
0.2047158 -0.3054292 0.22003114 -0.23904277 0.19243556 -0.17751013 0.16469279 0.12468108
0.20329536 0.05864569 -0.23105206 2.0822818 0.27687612 0.0052791657 0.3004312 -0.15304972
-0.6463137 -0.10143308 3.6274533 0.38698703 0.48351106 -0.1889522 -0.21043478 -0.21640714
0.07937655 -0.13287582 0.37981924 0.015766107 -0.19452795 -0.3572073 0.23717244 0.41569084
-0.13198976 -0.23533382 -0.28751376 0.25085187 -0.9804407 -0.2677709 0.36328498 -0.523228
-0.26479182 -0.28410885 0.00818349 -2.383613 0.063624114 0.23111616 0.15537824 -0.13822961
-0.30349523 -0.1420835 0.118995376 0.1544467 0.07903751 0.10440471 -0.28030035 -0.10776014
-0.27364928 0.016034022 -0.22633123 0.65071446 -2.7865014 -0.18106109 0.30515677 0.03761355
-0.019108994 -0.019890556 -0.06836527 -0.3161803 -0.108081385 0.33067265 -0.37084034 0.11408543
-0.048843402 0.07319368 0.23001179 -0.069502324 -0.071564324 0.18847647 -0.20477869 0.10864633
-0.1329097 0.44983706 0.072538435 -0.851968 0.14653888 -1.1873214 0.040607966 -0.3160668
0.07071084 -0.42366415 0.2296966 0.14797553 10.953731 0.24198551 -0.1718846 0.021844137
-0.24274583 -0.021711396 -0.36867335 -0.33988136 0.2578595 0.2386283 0.142977 0.6126733
0.39125955 0.012959443 0.2653712 -0.29193592 -0.15452723 0.09400758 0.2610258 0.5059451
-0.30981463 0.029513383 -0.28442386 -0.007889817 0.29065105 0.14012676 0.13508381 0.009115391
0.14270389 0.0640515 -0.5064445 0.16029783 -2.7423162 -0.1695905 -1.2580082 0.024513416
0.17346284 -0.3054146 0.21750876 -0.009125242 0.10770834 0.16139312 -0.14863023 4.326703
-0.11556947 -0.15915404 0.16766457 -0.742128 0.2353583 0.04502511 -0.11572221 -0.15643701
0.6909103 -0.37429535 1.1880628 1.3648975 0.067664206 0.045926634 -0.016750846 -0.19615541
0.17013909 -0.10186225 0.0808542 0.119206294 0.027525112 -0.110890746 -0.34441033 1.1849279
0.045615338 0.21370311 -0.1793102 -0.1858888 -0.53314257 0.11664798 0.014205251 0.7174108
0.072807856 -0.20468016 0.20735249 -3.283055 0.30915982 0.0039070984 0.23899487 0.22377801
-0.08166459 -0.16115125 0.18803929 -0.051973358 -0.19600937 0.17679429 -0.102577865 -0.023383018
0.24270363 -0.14853251 0.1783932 -0.67004156 -1.5405312 0.23521617 -0.038340203 0.14071365
-0.1758147 0.3162959 -0.035404228 -0.039250255 0.33953834 0.050264336 0.4264665 0.3305004
0.010799559 -0.09277079 0.8893526 -0.07464267 -0.2674065 0.17029534 0.029632643 0.17521337
-0.049176756 0.14451115 0.12863277 -2.046756 -0.09010675 -0.7391355 -0.051040884 -0.020560673
0.044772733 0.20593669 0.29245242 0.11734691 10.666944 -0.13300002 -0.071102604 0.11177625
0.027484069 0.02338465 0.07819472 -0.120784305 -0.23709989 -0.06991887 0.10605884 0.012821313
0.15290926 -0.20583965 -0.006087236 0.254334 -0.11423156 -0.22353841 0.26796478 0.8823353
0.09803246 -0.26416337 0.012863495 -0.024925746 -0.17900209 -0.08165885 0.06309516 0.21491152
00000000: 360e 61bd 6e26 543e 153d e2bf 1fb1 c13d
00000010: 252b cebf daa5 313e 0fbd 183f 926a a93d
00000020: 05a1 513e 3761 9cbe d84f 613e a1c7 74be
00000030: d40d 453e 37c5 35be 3aa5 283e cb58 ff3d
00000040: a92c 503e 7736 703d e998 6cbe 1b44 0540
00000050: b5c2 8d3e dafc ac3b 1ed2 993e 11b9 1cbe
00000060: d174 25bf 26bc cfbd 3228 6840 2a23 c63e
00000070: c38e f73e af7c 41be 377c 57be d599 5dbe
00000080: 2c90 a23d 9910 08be ab77 c23e ec27 813c
00000090: 5632 47be e0e3 b6be 55dd 723e 6ed5 d43e
000000a0: 5328 07be 59fb 70be 0135 93be a86f 803e
000000b0: 29fe 7abf 4419 89be 7d00 ba3e 45f2 05bf
000000c0: cb92 87be b776 91be 0b14 063c 1e8d 18c0
000000d0: 5c4d 823d b7a9 6c3e 791b 1f3e 108c 0dbe
000000e0: ba63 9bbe 567e 11be d9b3 f33d 4727 1e3e
000000f0: 6bde a13d 23d2 d53d 8783 8fbe 59b1 dcbd
00000100: c21b 8cbe c859 833c 60c3 67be 3995 263f
00000110: 0a56 32c0 1468 39be 823d 9c3e aa10 1a3d
00000120: 778a 9cbc 85f1 a2bc 1703 8cbd 62e2 a1be
00000130: c659 ddbd ed4d a93e c9de bdbe 9fa5 e93d
00000140: 0510 48bd 91e6 953d 3688 6b3e 3c57 8ebd
00000150: 5190 92bd faff 403e 81b1 51be f881 de3d
00000160: 7b19 08be 0b51 e63e 088f 943d 931a 5abf
00000170: 4a0e 163e 26fa 97bf 8a54 263d 82d3 a1be
00000180: d8d0 903d 82ea d8be 9635 6b3e e686 173e
00000190: 7b42 2f41 0dcb 773e 8402 30be 7af2 b23c
000001a0: 5d92 78be 19dc b1bc c1c2 bcbe ee04 aebe
000001b0: 2906 843e fa5a 743e 9068 123e 28d8 1c3f
000001c0: 2c53 c83e d853 543c bcde 873e a078 95be
000001d0: 633c 1ebe 0c87 c03d 2ca5 853e 9e85 013f
000001e0: 06a0 9ebe 0dc6 f13c 01a0 91be 4a44 01bc
000001f0: 37d0 943e 647d 0f3e 6953 0a3e b958 153c
00000200: f820 123e 6f2d 833d 59a6 01bf 1d25 243e
00000210: 1c82 2fc0 22a9 2dbe 6a06 a1bf 5cd0 c83c
00000220: 3ea0 313e 4d5f 9cbe 9eba 5e3e 0a82 15bc
00000230: 3196 dc3d 3d44 253e 8632 18be 5a74 8a40
00000240: b0af ecbd 47f9 22be 43b0 2b3e 1afc 3dbf
00000250: c401 713e 406c 383d c4ff ecbd 0631 20be
00000260: 7fdf 303f a4a3 bfbe 7112 983f f6b4 ae3f
00000270: 8893 8a3d 911d 3c3d 1239 89bc f7dc 48be
00000280: f138 2e3e 289d d0bd e396 a53d 6e22 f43d
00000290: 587c e13c b01a e3bd 8d56 b0be b8ab 973f
000002a0: 26d7 3a3d fdd4 5a3e 189d 37be a259 3ebe
000002b0: 087c 08bf 23e5 ee3d 24bd 683c 3ca8 373f
000002c0: 491c 953d ad97 51be 3654 543e 931d 52c0
000002d0: 324a 9e3e 1e07 803b 12bb 743e 1026 653e
000002e0: c43f a7bd d504 25be 5f8d 403e 04e2 54bd
000002f0: aeb6 48be 9009 353e 5814 d2bd be8d bfbc
00000300: 4d87 783e e818 18be b5ac 363e d887 2bbf
00000310: 2030 c5bf 82dc 703e 9e0a 1dbd 3d17 103e
00000320: c508 34be 89f1 a13e 0604 11bd e0c4 20bd
00000330: f8d7 ad3e fae1 4d3d d159 da3e 5937 a93e
00000340: a2f0 303c 9dfe bdbd 9dac 633f 42de 98bd
00000350: 81e9 88be e761 2e3e 28c0 f23c 226b 333e
00000360: 916d 49bd bbfa 133e 4fb8 033e 0dfe 02c0
00000370: e389 b8bd fc37 3dbf 3f10 51bd db6e a8bc
00000380: 9d63 373d 11e1 523e 53bc 953e 9453 f03d
00000390: cdab 2a41 2831 08be 3e9e 91bd f2ea e43d
000003a0: 4526 e13c 2a91 bf3c 8e24 a03d c35d f7bd
000003b0: 50ca 72be a031 8fbd 6135 d93d 7c10 523c
000003c0: 3f94 1c3e a1c7 52be 7077 c7bb 1138 823e
000003d0: 3cf2 e9bd 41e7 64be ae32 893e bae0 613f
000003e0: 3ec5 c83d 6c40 87be 69c1 523c 1431 ccbc
000003f0: 534c 37be c13c a7bd 0938 813d c411 5c3e

Q f4 [16, 16]
0.09705016 -0.07119383 0.16011171 -0.011846753 0.012210016 -0.0133734355 -0.013315136 0.0004126239
-0.0007096698 0.029722873 0.028244482 0.08280747 0.011596841 0.011675072 0.0077898377 -0.005825156
0.029221121 0.6736329 -0.3903288 -0.28072748 0.28130913 -0.28174046 -0.24989088 0.082141966
-0.089316905 0.166518 -1.4940779 -1.3673857 0.21950454 0.22617587 0.2430679 -0.20124252
-2.3493457 -2.7567723 -3.4290462 -0.085081436 0.08897881 -0.09888987 -0.13627975 -0.12036806
0.1156382 -1.3094039 0.062941745 0.7774855 0.15449993 0.15071066 0.016509607 0.02687579
2.3446002 0.095194384 0.23800656 -0.101276904 0.114843905 -0.16381665 -0.3810947 -0.26491332
0.25652963 -4.992489 -0.5021095 0.36833334 0.40388122 0.40921694 -0.045902297 0.108738385
-0.26197606 0.5014567 -0.34132916 -0.0064009414 0.0067906585 -0.008084288 -0.012386259 -0.006315321
0.005948441 -0.34712797 -0.47566545 -0.40410826 0.012703666 0.01271843 0.0022374764 -0.00014131781
-1.0461776 3.1136103 0.7622612 -0.025019424 0.014773957 0.021231266 0.1565557 0.19506745
-0.19222781 0.68160003 1.9776227 3.3981981 -0.17923419 -0.17791069 0.11281471 -0.13689129
-2.1156123 0.33623832 1.6552721 -0.011820376 0.022754993 -0.058984146 -0.24391589 -0.31168145
0.30573115 -1.1070843 2.192137 -4.222074 0.28988522 0.29198927 -0.12321612 0.18679683
-5.2670803 0.13741513 0.1068049 -0.04822781 0.043047395 -0.02561923 0.04564005 0.07066708
-0.0686219 0.62257946 2.4374702 -0.39150438 -0.078398176 -0.06114657 0.06557677 -0.05833055
-0.12287804 -0.027701803 -0.011649436 -0.010533147 0.011067336 -0.012814394 -0.016817722 -0.0069363727
0.0064901975 -0.07354085 -0.08228343 -0.112437055 0.016512662 0.016463894 0.0045381174 -0.0014667885
0.5496989 -0.73182726 -2.5299861 -0.005066968 0.00035546563 0.017432505 0.11178559 0.11940199
-0.116643384 -0.76598144 0.3725532 1.257965 -0.12942015 -0.13143004 0.053521335 -0.07167643
-0.1973258 1.171245 2.278803 0.27223167 -0.27842972 0.2966055 0.35036576 0.08381587
-0.07350673 1.6797136 -0.8167288 -2.2652278 -0.35869688 -0.35514244 -0.1684919 0.097751
0.1526092 -0.15329602 -0.05817821 -0.009688517 0.010249844 -0.011965523 -0.014748284 -0.008377432
0.0079831965 0.09002766 0.06651249 0.020827265 0.014319359 0.014442263 0.002718824 0.00053442764
-1.847063 -1.2851197 -0.635057 -0.008168766 0.020728078 -0.059736464 -0.2693838 -0.4065617
0.39980805 -2.4552677 0.9827183 -0.11717277 0.33059683 0.32989413 -0.16581143 0.25202265
-2.217316 2.0688531 0.91910815 -0.2128176 0.21046405 -0.20287275 -0.19837266 0.06874673
-0.075255 0.059191626 2.2722952 2.5251489 0.183354 0.19047214 0.19944985 -0.16741651
-2.3868763 -0.6513811 1.7744362 0.08433066 -0.08666141 0.09305791 0.041099012 -0.0936982
0.09435988 2.6257954 -0.006766183 0.46053317 -0.019126948 -0.015720248 -0.0811232 0.09250645
-0.04673757 0.7454746 0.89840853 -0.33393285 0.33849564 -0.35084292 -0.35458493 0.03970202
-0.05063512 -0.5038144 1.5431901 -0.6617622 0.33990562 0.33933595 0.26052746 -0.20818916
00000000: 3cc2 c63d 12ce 91bd 53f4 233e e218 42bc
00000010: 850c 483c 411c 5bbc ba27 5abc 7155 d839
00000020: 2209 3aba 627d f33c f960 e73c f696 a93d
00000030: ad00 3e3c cd48 3f3c e541 ff3b f3e0 bebb
00000040: 2261 ef3c 3573 2c3f 2dd9 c7be 83bb 8fbe
00000050: c007 903e 4940 90be 65e3 7fbe 0c3a a83d
00000060: c8eb b6bd b283 2a3e f23d bfbf 7f06 afbf
00000070: ccc5 603e a69a 673e cbe6 783e 8512 4ebe
00000080: ae5b 16c0 f56e 30c0 7e75 5bc0 2d3f aebd
00000090: 863a b63d c686 cabd eb8c 0bbe 8883 f6bd
000000a0: b8d3 ec3d 8c9a a7bf 9ae7 803d 4a09 473f
000000b0: 3b35 1e3e e553 1a3e 283f 873c 9e2a dc3c
000000c0: ee0d 1640 46f5 c23d feb7 733e 446a cfbd
000000d0: 4833 eb3d 8dbf 27be d81e c3be b8a2 87be
000000e0: da57 833e 78c2 9fc0 408a 00bf 3096 bc3e
000000f0: 85c9 ce3e e284 d13e 0c04 3cbd 3bb2 de3d
00000100: ba21 86be 775f 003f b2c2 aebe fdbe d1bb
00000110: 2c84 de3b f673 04bc bcef 4abc c1f0 cebb
00000120: 24eb c23b c2ba b1be 6c8a f3be 47e7 cebe
00000130: 0a23 503c f660 503c a0a2 123b b62e 14b9
00000140: 26e9 85bf 6445 4740 8d23 433f 89f5 ccbc
00000150: 780e 723c 31ed ad3c 2350 203e c3bf 473e
00000160: 5ed7 44be 577d 2e3f be22 fd3f 147c 5940
00000170: 2b89 37be 382e 36be 660b e73d 3b2d 0cbe
00000180: 3166 07c0 6e27 ac3e f5df d33f 40aa 41bc
00000190: ae68 ba3c 5c99 71bd 16c5 79be b694 9fbe
000001a0: cb88 9c3e f0b4 8dbf f94b 0c40 3b1b 87c0
000001b0: d66b 943e 9e7f 953e bc58 fcbd ab47 3f3e
000001c0: ec8b a8c0 8db6 0c3e 87bc da3d 868a 45bd
000001d0: 7752 303d 6bdf d1bc 10f1 3a3d e7b9 903d
000001e0: a489 8cbd 5e61 1f3f 83ff 1b40 4373 c8be
000001f0: 398f a0bd d374 7abd 1d4d 863d 04ec 6ebd
00000200: 7ba7 fbbd e4ee e2bc 47dd 3ebc 3893 2cbc
00000210: c653 353c 77f3 51bc 52c5 89bc 834a e3bb
00000220: b9ab d43b 969c 96bd 3784 a8bd 6645 e6bd
00000230: 9045 873c 4adf 863c 7db4 943b 4141 c0ba
00000240: 11b9 0c3f 0859 3bbf 4beb 21c0 cf08 a6bb
00000250: ca5d ba39 9dce 8e3c d8ef e43d 0889 f43d
00000260: bae2 eebd 5c17 44bf 4bbf be3e ff04 a13f
00000270: b786 04be 9995 06be 3039 5b3d 18cb 92bd
00000280: c60f 4abe 5beb 953f e9d7 1140 f361 8b3e
00000290: 578e 8ebe addc 973e 2463 b33e a8a7 ab3d
000002a0: b28a 96bd db00 d73f 2315 51bf 7ef9 10c0
000002b0: 1ea7 b7be 3bd5 b5be 2489 2cbe ad31 c83d
000002c0: 9645 1c3e a2f9 1cbe 464c 6ebd 96bc 1ebc
000002d0: f6ee 273c 0a0b 44bc c9a2 71bc 7f41 09bc
000002e0: f4cb 023c 6c60 b83d b337 883d f19d aa3c
000002f0: bf9b 6a3c 3e9f 6c3c 4c2e 323b d518 0c3a
00000300: 8f6c ecbf cd7e a4bf 1893 22bf 4ad6 05bc
00000310: eecd a93c 39ae 74bd acec 89be db28 d0be
00000320: a4b3 cc3e 1b23 1dc0 6d93 7b3f 47f8 efbd
00000330: fd43 a93e e2e7 a83e 79ca 29be 1d09 813e
00000340: 81e8 0dc0 1768 0440 ac4a 6b3f dbec 59be
00000350: e383 573e e0bd 4fbe 3422 4bbe 16cb 8c3d
00000360: 4b1f 9abd eb72 723d 496d 1140 0a9c 2140
00000370: 27c1 3b3e 210b 433e 953c 4c3e 3c6f 2bbe
00000380: 95c2 18c0 e9c0 26bf ba20 e33f 8eb5 ac3d
00000390: 8a7b b1bd 2595 be3d 7057 283d d8e4 bfbd
000003a0: c13f c13d 080d 2840 dbb6 ddbb 01cb eb3e
000003b0: 1eb0 9cbc c0c7 80bc ec23 a6bd 0674 bd3d
000003c0: e56f 3fbd 6cd7 3e3f 1afe 653f 3ff9 aabe
000003d0: 4d4f ad3e afa1 b3be 288c b5be 969e 223d
000003e0: c666 4fbd fbf9 00bf 4187 c53f 3f69 29bf
000003f0: 1c08 ae3e 71bd ad3e db63 853e 8a2f 55be

r f4 [16, 1]
-1.6017063 2.2786565 -1.7105372 0.103565216 -0.10881807 0.12604065 0.18751813 0.07403012
-0.068907134 -1.3102448 -1.947333 -1.6247817 -0.19399841 -0.1950382 -0.04199252 0.011580875
00000000: b604 cdbf 82d5 1140 e2f2 dabf 001a d43d
00000010: 02dc debd cd10 013e c104 403e 1b9d 973d
00000020: 2f1f 8dbd 1ab6 a7bf 3542 f9bf d9f8 cfbf
00000030: 85a7 46be 18b8 47be 5900 2cbd b6bd 3d3c

c f4 [3, 1]
1.0 1.0 1.0
00000000: 0000 803f 0000 803f 0000 803f

gru.weight_ih f4 [48, 16]
-0.010468778 -0.011558294 -0.00087953836 -0.005037211 -0.009074176 -0.0011227822 -0.007066197 -0.004712861
-0.004548418 -0.016030848 -0.0011510863 -0.02146405 -0.001780083 -0.0010950102 -0.005230906 -0.010781087
2.2284126 1.8082185 -0.19666387 -2.876464 1.6048175 -0.25947562 -1.1789869 1.6279316
1.3241613 -6.5589046 -0.27545515 3.1174576 2.4600604 -0.2542866 -5.2727942 -7.1606336
1.4545205 2.2799397 -0.25807798 -3.005743 2.086976 -0.20867506 -2.2924168 1.409931
1.5933678 -7.1900663 -0.16444476 1.7968786 1.7135167 -0.21089421 -5.1432505 -5.739988
2.1270967 1.8286071 -0.21035479 -6.564809 2.5366895 -0.123384856 0.82924235 1.0946546
2.2846959 -9.577172 -0.07030543 1.1301095 1.7093978 -0.127376 -4.7276535 -7.691765
-0.02035652 -0.030594781 -3.8773112e-05 0.0019899937 -0.026275491 6.715872e-05 -0.0035106742 -0.022442639
-0.014155752 -0.011658028 3.8882717e-05 -0.03302027 -0.022177303 4.903681e-05 0.0006141961 -0.01316282
2.1650312 1.2568941 -0.27735442 -4.9418564 1.7489412 -0.29755953 -1.2497286 1.5777657
2.597641 -7.690754 -0.28476867 1.8525118 1.5668998 -0.2957648 -5.863133 -6.5182457
0.90658796 1.5703144 -0.21025899 -5.5046062 0.80330884 -0.30408368 -4.653865 1.9737025
2.394911 -8.159378 -0.3386313 1.2161094 2.0337842 -0.29731116 -5.9895225 -6.1836495
3.0195093 1.2506144 -0.07847316 -5.6607876 0.5855986 -0.016415501 -0.8542975 1.264505
2.6843894 -8.70935 0.0079301335 1.7937329 1.3496685 -0.020620313 -6.3758483 -6.3057823
-0.03219515 -0.033804856 0.0025942589 0.0040994617 -0.0345269 0.0031570757 -0.0009180818 -0.036697865
-0.031397767 -0.014111234 0.0031527882 -0.030669184 -0.028530004 0.003096492 -0.002196835 -0.005751294
0.95010865 1.4579713 -0.07620828 -2.607869 1.4890522 -0.07832425 -2.1806085 1.3389235
2.0758188 -5.0533485 -0.07391573 1.4016519 1.4638187 -0.07807425 -3.8364959 -3.7269862
2.7820494 2.428894 -0.13087633 -2.537728 1.9644023 -0.21771999 0.6245439 0.86229235
2.7025278 -6.7039685 -0.23839615 2.9694672 1.5585302 -0.21147749 -5.001454 -7.160981
-0.025679257 -0.033307645 -0.0013767492 0.0019841758 -0.029779091 -0.0018352171 0.0018552884 -0.031106355
-0.027738277 0.0011468406 -0.0018254727 -0.032668903 -0.025816636 -0.0017941174 0.0005067081 7.6773606e-05
2.3095431 1.9448305 -0.25850865 -4.912932 2.0080695 -0.2391597 -1.487702 0.8981483
1.2120912 -6.7494493 -0.2153358 1.8795284 2.0071673 -0.23854588 -4.787471 -6.197726
1.0533568 1.8048506 -0.32818413 -4.341709 0.63846314 -0.32027903 -5.532223 1.968453
2.4083784 -5.731894 -0.273236 1.9716524 1.7179506 -0.32323366 -7.1645412 -7.4117002
2.0498312 1.5702095 -0.2967531 -3.8223102 2.7422154 -0.3194382 -0.9925586 1.610293
2.830585 -8.042552 -0.3086819 2.3334904 2.8762555 -0.3165359 -6.272334 -6.963664
1.7035788 1.1792927 -0.39769575 -2.2923205 0.0875379 -0.42406633 -4.736771 2.6720047
2.4393559 -8.010866 -0.40496066 2.881581 1.7301272 -0.4246961 -4.6334944 -9.253023
00000000: 3d85 2bbc 005f 3dbc d290 66ba 300f a5bb
00000010: daab 14bc 522a 93ba 8f8b e7bb 586e 9abb
00000020: e50a 95bb 2053 83bc 0ce0 96ba 60d5 afbc
00000030: ad51 e9ba 7286 8fba 0568 abbb 28a3 30bc
00000040: 509e 0e40 b473 e73f 4162 49be fc17 38c0
00000050: a96a cd3f fdd9 84be 0be9 96bf 1060 d03f
00000060: 1e7e a93f 8ce2 d1c0 7508 8dbe 6d84 4740
00000070: a171 1d40 da31 82be bbba a8c0 e923 e5c0
00000080: ba2d ba3f 88ea 1140 cc22 84be 185e 40c0
00000090: 0491 0540 eaae 55be f5b6 12c0 9e78 b43f
000000a0: 7af3 cb3f 0615 e6c0 3564 28be 1e00 e63f
000000b0: 8454 db3f a7f4 57be 8295 a4c0 fbad b7c0
000000c0: 5a22 0840 cc0f ea3f 3f67 57be ea12 d2c0
000000d0: 1f59 2240 33b1 fcbd 3a49 543f a41d 8c3f
000000e0: 7538 1240 193c 19c1 4bfc 8fbd 6ea7 903f
000000f0: 8ccd da3f db6e 02be f048 97c0 f022 f6c0
00000100: b7c2 a6bc e8a1 fabc 50a0 22b8 8e6a 023b
00000110: b33f d7bc 90d7 8c38 5713 66bb a0d9 b7bc
00000120: 87ed 67bc 5001 3fbc 0016 2338 4340 07bd
00000130: 2dad b5bc e0ac 4d38 0102 213a dea8 57bc
00000140: df8f 0a40 e8e1 a03f 6601 8ebe b023 9ec0
00000150: 4edd df3f b959 98be 1bf7 9fbf 3af4 c93f
00000160: c03f 2640 a81a f6c0 33cd 91be 1b1f ed3f
00000170: 2c90 c83f 7c6e 97be c99e bbc0 7895 d0c0
00000180: 2616 683f 1000 c93f 224e 57be bc25 b0c0
00000190: a6a5 4d3f dbb0 9bbe 76ec 94c0 49a2 fc3f
000001a0: 3946 1940 d08c 02c1 1561 adbe 79a9 9b3f
000001b0: 8529 0240 2b39 98be 2baa bfc0 75e0 c5c0
000001c0: a43f 4140 2214 a03f 89b6 a0bd 2c25 b5c0
000001d0: cae9 153f cd79 86bc 3eb3 5abf 4ddb a13f
000001e0: 09cd 2b40 7f59 0bc1 64ed 013c 0a99 e53f
000001f0: f0c1 ac3f eeeb a8bc f306 ccc0 f8c8 c9c0
00000200: 10df 03bd f676 0abd 7104 2a3b c754 863b
00000210: 146c 0dbd f1e6 4e3b 6dab 70ba 8050 16bd
00000220: f29a 00bd ce32 67bc 029f 4e3b f13d fbbc
00000230: c1b7 e9bc 84ee 4a3b c6f8 0fbb 5a75 bcbb
00000240: 523a 733f ce9e ba3f 1613 9cbd 53e7 26c0
00000250: 4399 be3f 7768 a0bd 178f 0bc0 d861 ab3f
00000260: 37da 0440 08b5 a1c0 2161 97bd 5469 b33f
00000270: 695e bb3f 64e5 9fbd 2689 75c0 f186 6ec0
00000280: 190d 3240 0073 1b40 7204 06be 236a 22c0
00000290: 8971 fb3f fdf1 5ebe 1ce2 1f3f 31bf 5c3f
000002a0: 37f6 2c40 e986 d6c0 1f1e 74be c00b 3e40
000002b0: eb7d c73f 8e8d 58be e90b a0c0 c226 e5c0
000002c0: 4e5d d2bc 996d 08bd 0a74 b4ba f208 023b
000002d0: 48f3 f3bc ab8b f0ba 262d f33a c1d2 febc
000002e0: 623b e3bc 9651 963a b344 efba d4cf 05bd
000002f0: 697d d3bc 9728 ebba 9bd4 043a 8401 a138
00000300: 8ecf 1340 35f0 f83f 3f5b 84be bd36 9dc0
00000310: 3684 0040 48e6 74be 056d bebf 0ced 653f
00000320: ce25 9b3f 7dfb d7c0 fd80 5cbe 6394 f03f
00000330: 6e75 0040 5f45 74be f632 99c0 c553 c6c0
00000340: 65d4 863f 5805 e73f c007 a8be 48ef 8ac0
00000350: 5272 233f 9dfb a3be f907 b1c0 45f6 fb3f
00000360: df22 1a40 ad6b b7c0 97e5 8bbe 1b5f fc3f
00000370: cee5 db3f e27e a5be ec43 e5c0 a62c edc0
00000380: 6f30 0340 a0fc c83f 06f0 97be bba0 74c0
00000390: 7580 2f40 678d a3be 5218 7ebf 151e ce3f
000003a0: 4e28 3540 4bae 00c1 8e0b 9ebe e857 1540
000003b0: 9214 3840 fe10 a2be f6b6 c8c0 56d6 dec0
000003c0: df0e da3f 10f3 963f c79e cbbe 61b5 12c0
000003d0: 1247 b33d 391f d9be a193 97c0 2002 2b40
000003e0: 681e 1c40 822c 00c1 0157 cfbe d36b 3840
000003f0: cf74 dd3f c471 d9be 9645 94c0 620c 14c1

gru.weight_hh f4 [48, 16]
-7.255179e-05 0.00067285646 0.006726741 0.0019102157 -6.0742695e-06 0.007715193 -0.00072839414 0.0047429977
3.151303e-05 0.0044637052 -0.008440663 2.5531997e-05 0.0029678142 0.004315723 -0.0022117186 0.0045694504
-0.009277149 -1.3233955 -0.20333387 0.38145226 0.0018198868 -0.6242862 0.78893495 -0.043110877
0.030612636 0.22794734 0.2246094 0.0049344217 0.6018513 -0.36870217 -0.078561 0.023658039
-0.018786076 0.47747514 0.21535087 -0.6522253 -0.042230215 -0.11438338 -0.31074032 0.40434107
-0.035346936 0.5286161 -0.057401635 -0.015713925 -0.20501457 -0.98610294 0.99377745 -0.7093694
0.0013894965 -1.0093116 -0.3345855 -0.60049766 0.015755435 0.43052346 0.4948001 0.9211899
0.008936913 -0.31694272 1.9368021 0.0055819666 0.41908458 -0.45571217 1.4104328 -1.6028577
4.4021504e-06 -0.003549254 -0.0012788681 0.0010436556 3.8782196e-06 0.0064741857 -0.0028989199 0.0018192278
2.9744735e-05 0.00081425277 -0.002228633 3.9232167e-05 0.0008564488 0.003184146 -0.00074464275 0.00045623764
0.012707396 -1.0035317 -0.9358293 -0.060850922 -0.010617848 1.0009161 0.04099329 0.43088314
0.024713961 -0.3233636 0.24073568 -0.015535795 0.48283166 1.6046957 0.5646612 0.8682006
-0.020057749 -0.45150533 0.41702598 0.4897657 -0.08378659 1.0611945 -0.30829877 -1.2959293
-0.041702483 1.1294905 -0.5601565 0.004893494 -0.91667956 0.35487446 -0.7145809 -0.7964907
-0.067777365 0.061072666 0.48602587 -0.0471373 0.009930228 1.659091 0.90710646 2.4110417
0.03908225 0.97141594 -0.23906024 0.041488316 0.41986436 0.3055321 0.055433847 -0.11297834
3.834389e-05 -0.0057982877 -0.0001593359 0.0029028985 -2.0384123e-05 0.01390272 -0.00447571 0.0016348609
-3.403822e-05 0.0024090675 -0.0025325113 -9.715317e-05 0.0017916721 0.007562885 -0.0010618512 -0.00053811166
-0.028147697 0.65985364 0.23204619 0.25237757 -0.002549927 -0.009376793 0.09902645 0.25217688
0.0070564537 0.33994982 -0.040032726 -0.0016748843 -0.43227673 -0.72120804 -0.34843957 0.2952949
0.0063839406 -1.1980412 -1.5018113 -1.2653708 -0.047594514 0.57308745 1.6271665 2.067804
0.008052947 -0.88001955 1.8324314 -0.012704997 0.3224637 0.73104864 1.6058053 -0.19828084
-7.1174916e-05 -0.0025167977 0.0024360935 0.0036842888 1.3998182e-05 0.005208823 -0.0017910723 0.0011301995
6.65875e-06 0.00311717 -0.004306153 2.111489e-05 0.0029452345 -0.00081952626 -0.003838856 -0.000234548
-0.018450435 -0.9499549 0.5980371 -0.8675485 -0.050769087 0.17093836 0.30183554 -0.3924477
-0.037031557 0.4516914 0.93545455 -0.00053324975 0.106800295 -0.6819116 0.5616578 -1.0772073
-0.019096881 0.42142206 -1.1937857 0.20830949 0.008784334 -0.29098946 0.63250726 1.1897019
-0.004339384 -0.650164 0.30048996 0.011258213 -0.13087589 -0.36311734 -1.5280195 1.5580515
0.0088964375 0.82806903 -0.48839554 -0.7828126 -0.072448306 -1.0895457 1.5532331 0.55494434
-0.06606051 0.29886454 1.1727382 -0.05134983 -1.5588143 -2.252573 -1.031378 -1.3653296
0.014017103 1.0445131 0.9385113 2.1743596 -0.07019191 0.050773446 0.7062805 -0.22782388
-0.033903513 0.19171856 -2.165983 -0.02568094 0.44194236 1.4407547 0.32057813 1.9216958
00000000: f226 98b8 a262 303a fe6b dc3b 3460 fa3a
00000010: 94d1 cbb6 bbcf fc3b b4f1 3eba 266b 9b3b
00000020: dc2c 0438 4644 923b b54a 0abc 8c2d d637
00000030: a97f 423b e96a 8d3b 7bf2 10bb 54bb 953b
00000040: 2fff 17bc 0665 a9bf c136 50be b64d c33e
00000050: 4589 ee3a 38d1 1fbf a4f7 493f 0895 30bd
00000060: 5ac7 fa3c 076b 693e 0200 663e eeb0 a13b
00000070: ed12 1a3f 88c6 bcbe 97e4 a0bd 81ce c13c
00000080: 42e5 99bc 9f77 f43e f084 5c3e 3df8 26bf
00000090: 97f9 2cbd d541 eabd 5b19 9fbe cb05 cf3e
000000a0: f3c7 10bd 6253 073f fa1d 6bbd 7dba 80bc
000000b0: 57ef 51be 3e71 7cbf 3368 7e3f 3c99 35bf
000000c0: c41f b63a 1f31 81bf ca4e abbe 37ba 19bf
000000d0: 8b11 813c 926d dc3e 7056 fd3e 1ad3 6b3f
000000e0: 216c 123c 5146 a2be 22e9 f73f eee8 b63b
000000f0: 4192 d63e 1b53 e9be 1089 b43f 712a cdbf
00000100: 2fb6 9336 9a9a 68bb b19f a7ba 45cb 883a
00000110: a721 8236 6825 d43b cefb 3dbb 2873 ee3a
00000120: 5584 f937 9473 553a 420e 12bb 388d 2438
00000130: 4e83 603a 1bad 503b 2134 43ba 2e33 ef39
00000140: af32 503c ba73 80bf 8292 6fbf d13e 79bd
00000150: 7bf6 2dbc 051e 803f 94e8 273d b79c dc3e
00000160: ef74 ca3c ea8f a5be 6a83 763e d989 7ebc
00000170: b635 f73e ab66 cd3f a38d 103f 6542 5e3f
00000180: 2650 a4bc b52b e7be 6e84 d53e 92c2 fa3e
00000190: 4e98 abbd 39d5 873f 56d9 9dbe 03e1 a5bf
000001a0: 39d0 2abd 2593 903f 6b66 0fbf 9a59 a03b
000001b0: 83ab 6abf 1bb2 b53e c6ee 36bf d1e6 4bbf
000001c0: dcce 8abd 5527 7a3d 62d8 f83e 0b13 41bd
000001d0: 65b2 223c 185d d43f 2138 683f 824e 1a40
000001e0: b614 203d b7ae 783f 35cc 74be a7ef 293d
000001f0: 76f8 d63e b46e 9c3e 9a0e 633d 3061 e7bd
00000200: 70d3 2038 90ff bdbb 6813 27b9 8e3e 3e3b
00000210: 92fe aab7 3cc8 633c faa8 92bb d448 d63a
00000220: 43c4 0eb8 72e1 1d3b 7df8 25bb b6be cbb8
00000230: 8ad6 ea3a 14d2 f73b d02d 8bba 1010 0dba
00000240: 0096 e6bc 2bec 283f 849d 6d3e a237 813e
00000250: ad1c 27bb 1fa1 19bc 61ce ca3d 541d 813e
00000260: d339 e73b e70d ae3e 5bf9 23bd cb87 dbba
00000270: 6053 ddbe 17a1 38bf ac66 b2be e530 973e
00000280: 6030 d13b 6a59 99bf 5a3b c0bf acf7 a1bf
00000290: 77f2 42bd dcb5 123f fe46 d03f e756 0440
000002a0: 82f0 033c f648 61bf 1d8d ea3f 9f28 50bc
000002b0: f619 a53e 0126 3b3f 078b cd3f 220a 4bbe
000002c0: be43 95b8 dcf0 24bb dea6 1f3b 1c74 713b
000002d0: bcd9 6a37 c6ae aa3b 6ac2 eaba 3423 943a
000002e0: 3a6e df36 6f49 4c3b a11a 8dbb e21f b137
000002f0: d604 413b 7ad5 56ba 5195 7bbb 00f1 75b9
00000300: 5e25 97bc 3f30 73bf f618 193f a917 5ebf
00000310: 3ff3 4fbd 770a 2f3e 308a 9a3e e8ee c8be
00000320: 67ae 17bd 1844 e73e f379 6f3f c9c9 0bba
00000330: 1dba da3d c291 2ebf cec8 0f3f eee1 89bf
00000340: 1071 9cbc a2c4 d73e f8cd 98bf 154f 553e
00000350: 2bec 0f3c 92fc 94be ffeb 213f 2748 983f
00000360: 6431 8ebb 2671 26bf d2d9 993e 5e74 383c
00000370: 5404 06be 84ea b9be 2596 c3bf 3b6e c73f
00000380: 5dc2 113c 55fc 533f fb0e fabe 6866 48bf
00000390: c75f 94bd 3c76 8bbf 58d0 c63f d510 0e3f
000003a0: bc4a 87bd c604 993e 491c 963f 3354 52bd
000003b0: 3a87 c7bf 282a 10c0 3204 84bf 1fc3 aebf
000003c0: fea7 653c 9bb2 853f 4742 703f b528 0b40
000003d0: c7c0 8fbd d1f7 4f3d cdce 343f aa4a 69be
000003e0: 69de 0abd df51 443e 779f 0ac0 d660 d2bc
000003f0: 4546 e23e a66a b83f d122 a43e 21fa f53f

gru.bias_ih f4 [48]
-0.050743956 -2.6647043 -2.6401985 -2.4525006 -0.06651653 -2.7673705 -2.4550745 -2.3961887
-0.07637605 -2.148874 -2.7769277 -0.07817106 -2.6127815 -2.5273685 -3.2244735 -2.5325556
0.9379079 -0.8328308 -0.8051282 -1.2311771 0.8913856 -1.1677247 -1.1232682 -0.8996184
0.89467293 -0.4483625 -0.923086 0.88276786 -1.1148741 -1.2650328 -1.3574201 -1.0486434
-0.005521154 -0.0037869 0.0050349133 -0.05592316 -0.0054441304 0.039742146 -0.024213957 0.013311145
-0.007105629 0.033979148 -0.044985067 0.0081105875 -0.03223271 -0.002975855 -0.022425832 -0.024829326
00000000: e5d8 4fbd 848a 2ac0 03f9 28c0 c5f5 1cc0
00000010: d239 88bd 991c 31c0 f11f 1dc0 285b 19c0
00000020: 0c6b 9cbd 2787 09c0 2fb9 31c0 2618 a0bd
00000030: d037 27c0 68c0 21c0 c65d 4ec0 6415 22c0
00000040: bb1a 703f 6634 55bf e21c 4ebf 3697 9dbf
00000050: d931 643f 0178 95bf 41c7 8fbf 644d 66bf
00000060: 4909 653f c58f e5be 5d4f 6cbf 13fd 613f
00000070: 32b4 8ebf 98ec a1bf f1bf adbf f239 86bf
00000080: ccea b4bb a42d 78bb eafb a43b af0f 65bd
00000090: ad64 b2bb a9c8 223d 595c c6bc fd16 5a3c
000000a0: 56d6 e8bb b82d 0b3d 4342 38bd 45e2 043c
000000b0: 7206 04bd 9006 43bb 61b6 b7bc df66 cbbc

gru.bias_hh f4 [48]
-0.050743956 -2.8573778 -2.4592798 -2.3827782 -0.06651653 -2.7481163 -2.361346 -2.1349902
-0.07637605 -2.0408466 -2.9851587 -0.07817106 -2.4901855 -2.6077788 -3.3098698 -2.4777136
0.9379079 -0.8676981 -0.73802155 -1.0339822 0.8913856 -1.0929643 -1.1712826 -1.202578
0.89467293 -0.24522299 -0.6330638 0.88276786 -1.0462941 -1.183479 -1.2212123 -1.2093239
-0.0036198401 0.06364531 0.11337117 -0.047753945 -0.0068278117 0.11214382 -0.06137308 0.13827248
0.0023292163 0.10242064 -0.2383206 -0.005212633 -0.050438732 0.013809696 -0.023350125 0.034491565
00000000: e5d8 4fbd 47df 36c0 d764 1dc0 707f 18c0
00000010: d239 88bd 23e1 2fc0 4b20 17c0 aea3 08c0
00000020: 0c6b 9cbd 3b9d 02c0 d70c 3fc0 2618 a0bd
00000030: 335f 1fc0 d9e5 26c0 e8d4 53c0 dc92 1ec0
00000040: bb1a 703f 7621 5ebf fbee 3cbf 8759 84bf
00000050: d931 643f 41e6 8bbf 97ec 95bf 13ee 99bf
00000060: 4909 653f bc1b 7bbe 7810 22bf 13fd 613f
00000070: f7ec 85bf 3d7c 97bf af50 9cbf 20cb 9abf
00000080: d73a 6dbb 7958 823d 252f e83d a499 43bd
00000090: d6bb dfbb a9ab e53d 5762 7bbd 4d97 0d3e
000000a0: c4a5 183b eac1 d13d 510a 74be bcce aabb
000000b0: d898 4ebd 1042 623c c348 bfbc 0747 0d3d

linear.weight f4 [16, 128]
-0.025617499 -0.096050955 8.196033 0.10368169 1.5555726 -0.11740097 3.7472348 -0.11589506
0.00094708335 -0.042493057 0.00023383973 0.075794615 -0.05520295 0.10525304 0.027628092 -2.8201783
0.03248048 -0.074235566 -0.0392161 3.536655 0.06282924 -0.08831237 -0.08390585 -0.20059787
1.0734535 -0.03595937 1.7777689 -3.3535013 -0.14284264 -0.024126094 -0.040418334 -0.08621383
0.0863075 -0.1535519 0.054728884 -0.015509982 -0.00946253 0.09719303 0.0348542 -0.17504948
-0.03923261 -0.013475254 0.07920858 -0.07040208 -2.2582796 -0.030115917 0.0030686534 0.89221025
-0.17777233 -0.055910353 0.058842674 0.7174326 -0.055699393 -0.0173088 0.043569103 -0.04362105
0.06470542 -0.023145987 -0.1050673 0.025190055 0.038970657 -0.004784037 -0.011590626 -0.20641819
-0.031111818 -0.07303936 -0.030804247 -1.2068319 0.34954628 0.054736394 -0.0067609204 0.011688412
0.046600726 0.0089783 0.060532134 0.0005379794 -0.43914258 -0.16898696 0.6648394 0.042585913
-0.11859995 -0.14047545 -0.317875 -0.13312513 -0.17447878 0.05165176 -0.018395497 0.15973873
0.09535204 -0.14372574 0.19853114 -2.493921 0.02375475 2.7062423 -0.06387452 -0.09955871
-0.052320536 -4.129616 0.0030734574 -0.078713425 0.26563865 0.07596945 -0.0032469223 0.14539377
2.0860455 0.01834403 0.016279448 -0.06808694 0.025126543 0.06153393 -0.047320817 -1.594338
-0.059308585 -0.062350158 -0.04774933 0.055581037 0.05222875 -0.011334475 0.058149867 2.5212069
0.13212678 0.015274759 0.21355344 0.09192471 0.004881239 -0.11412401 -0.14532171 0.027468355
0.15489317 0.029789254 -1.7978288 0.016844796 4.8261595 0.05206173 -6.2532086 0.0482642
-0.10082188 0.15353322 -0.08540383 -0.10626629 0.15641515 -0.052823834 -0.10840492 2.1441882
0.08880726 -0.08253418 -0.083861 -0.99064684 -0.088472836 0.20070288 0.12821117 0.054096103
-1.61803 0.03982927 -1.2659739 -4.894399 0.057514515 -0.15590158 0.06982718 0.11947009
-0.053372722 0.048082143 0.11240573 0.14846487 -0.17667761 -0.06252294 0.10217119 -0.25397834
-0.14708199 -0.05408544 -0.092288405 0.13934955 5.2186656 0.044425197 0.12829171 -3.7165036
0.21064532 0.036645677 -0.08999337 2.056185 0.08778431 0.19056734 -0.12377756 0.04824245
-0.12050184 -0.13841036 -0.102492765 -0.088422865 -0.08202301 -0.17123489 0.041733567 0.021592192
-0.035413977 0.15398921 -0.07874694 1.8096163 -3.3824675 0.041681394 0.14289388 -0.20587127
-0.10804884 -0.10715232 -0.038612995 -0.022342358 0.9609484 0.008563209 -1.119913 -0.030100718
0.08455227 -0.0039770664 0.0863646 0.04302651 0.08528091 -0.0031565325 -0.16641064 -0.018312635
-0.14686051 -0.04227774 -0.12993532 1.7236644 -0.10793587 4.506817 0.0932197 -0.031462662
0.092462555 -1.9097067 0.039214626 0.1272088 -1.0244814 -0.009660735 -0.056505006 -0.034270804
-3.0357697 -0.11926849 -0.10649691 -0.019747231 0.063142076 0.08002094 0.11935668 2.2628195
0.075497836 0.07821809 0.17005464 -0.02570967 -0.14957686 -0.036255732 -0.06861592 3.4052303
-0.113339804 0.027806966 0.024409028 -0.11251954 -0.08258975 -0.0076701017 0.011191439 0.09111803
00000000: cadb d1bc 5db6 c4bd f322 0341 1157 d43d
00000010: 011d c73f eb6f f0bd b2d2 6f40 645a edbd
00000020: b045 783a 330d 2ebd e032 7539 353a 9b3d
00000030: 7d1c 62bd e88e d73d 4f54 e23c cd7d 34c0
00000040: 400a 053d d108 98bd 10a1 20bd 8e58 6240
00000050: 9eac 803d 1edd b4bd d5d6 abbd 8769 4dbe
00000060: ed66 893f 224a 13bd ee8d e33f c49f 56c0
00000070: 5745 12be 16a4 c5bc b28d 25bd e090 b0bd
00000080: fdc1 b03d b63c 1dbe 652b 603d 941d 7ebc
00000090: ba08 1bbc 240d c73d 47c3 0e3d 2c40 33be
000000a0: 60b2 20bd 50c7 5cbc 1c38 a23d f72e 90bd
000000b0: a787 10c0 a8b5 f6bc 761b 493b e467 643f
000000c0: f309 36be 4102 65bd 0405 713d aaa9 373f
000000d0: 0c25 64bd 2fcb 8dbc 8475 323d fcab 32bd
000000e0: 4684 843d a79c bdbc 862d d7bd 605b ce3c
000000f0: b29f 1f3d 69c3 9cbb 9ce6 3dbc 4a5f 53be
00000100: 36de febc a995 95bd 3059 fcbc 7879 9abf
00000110: bbf7 b23e 4533 603d b68a ddbb c180 3f3c
00000120: 67e0 3e3d b819 133c 8bf0 773d 3007 0d3a
00000130: 4cd7 e0be eb0a 2dbe ea32 2a3f 916e 2e3d
00000140: 88e4 f2bd ccd8 0fbe 83c0 a2be f451 08be
00000150: 91aa 32be cc90 533d 27b2 96bc 8d92 233e
00000160: ee47 c33d d72c 13be bf4b 4b3e 679c 1fc0
00000170: 5299 c23c 1333 2d40 a5d0 82bd 70e5 cbbd
00000180: 0f4e 56bd d025 84c0 0f6c 493b 8134 a1bd
00000190: ca01 883e df95 9b3d 51ca 54bb 1be2 143e
000001a0: c581 0540 3846 963c 7a5c 853c 2a71 8bbd
000001b0: 2ed6 cd3c 010b 7c3d 79d3 41bd 4513 ccbf
000001c0: 8fed 72bd e162 7fbd cd94 43bd f1a8 633d
000001d0: d0ed 553d 3cb4 39bc 8e2e 6e3d 745b 2140
000001e0: 3e4c 073e fc42 7a3c c1ad 5a3e 0643 bc3d
000001f0: cdf2 9f3b d9b9 e9bd 37cf 14be 5105 e13c
00000200: 519c 1e3e 9808 f43c 411f e6bf 19fe 893c
00000210: e66f 9a40 ae3e 553d 491a c8c0 afb0 453d
00000220: b47b cebd d037 1d3e 34e8 aebd 24a2 d9bd
00000230: 4b2b 203e ce5d 58bd 6603 debd 613a 0940
00000240: 95e0 b53d ae07 a9bd 51bf abbd 089b 7dbf
00000250: 3f31 b5bd 0e85 4d3e ca49 033e e093 5d3d
00000260: 9b1b cfbf 0424 233d 6f0b a2bf eb9e 9cc0
00000270: 5794 6b3d aaa4 1fbe 8d01 8f3d bcac f43d
00000280: 5b9d 5abd c8f1 443d fa34 e63d 2d07 183e
00000290: faea 34be 070c 80bd 213f d13d 7309 82be
000002a0: a99c 16be b288 5dbd b401 bdbd a6b1 0e3e
000002b0: 4fff a640 32f7 353d e75e 033e 32db 6dc0
000002c0: 68b3 573e c719 163d 724e b8bd 8998 0340
000002d0: 43c8 b33d 1624 433e 177f fdbd e099 453d
000002e0: abc9 f6bd 72bb 0dbe bae7 d1bd 0c17 b5bd
000002f0: aefb a7bd 3358 2fbe d1f0 2a3d 1ce2 b03c
00000300: 3f0e 11bd 59af 1d3e 1346 a1bd 82a1 e73f
00000310: 597a 58c0 1cba 2a3d c652 123e ebcf 52be
00000320: b648 ddbd ad72 dbbd a928 1ebd 5207 b7bc
00000330: b700 763f b44c 0c3c 4f59 8fbf c895 f6bc
00000340: be29 ad3d 0d52 82bb ecdf b03d 913c 303d
00000350: c2a7 ae3d d4dd 4ebb 8d67 2abe 6104 96bc
00000360: 9a62 16be 6c2b 2dbd c40d 05be 09a1 dc3f
00000370: 7b0d ddbd d837 9040 f8e9 be3d fede 00bd
00000380: 025d bd3d 4571 f4bf 849f 203d 0643 023e
00000390: 3522 83bf 0f48 1ebc cb71 67bd 8b5f 0cbd
000003a0: 0d4a 42c0 0a43 f4bd 0d1b dabd f2c4 a1bc
000003b0: a250 813d 05e2 a33d 4671 f43d 09d2 1040
000003c0: 9c9e 9a3d ce30 a03d ce22 2e3e 169d d2bc
000003d0: ad2a 19be e480 14bd 8186 8cbd 4bef 5940
000003e0: b31e e8bd 6fcb e33c 71f5 c73c a570 e6bd
000003f0: d124 a9bd 7a55 fbbb 4c5c 373c 179c ba3d

linear.bias f4 [16]
0.3743934 2.5864682 -8.088809 -9.510605 0.4490708 -7.147124 4.4755807 7.1157374
1.9127584 8.525118 -6.722837 6.179997 -7.8590894 -5.7285175 -6.9228106 -2.5533266
00000000: 7eb0 bf3e b288 2540 c36b 01c1 702b 18c1
00000010: 9cec e53e 3db5 e4c0 f537 8f40 1fb4 e340
00000020: 44d5 f43f e266 0841 7b21 d7c0 89c2 c540
00000030: a97d fbc0 0450 b7c0 aa87 ddc0 b469 23c0

layer1.linear.bias f4 [32]
-0.13843828 -0.2637652 0.010267667 0.48870358 -0.4583419 -0.24285044 0.45533857 0.4548201
-0.15148465 0.30878344 -0.52537906 0.3874353 2.6131353 0.22936578 -0.24969602 -0.24172033
-0.015760066 0.11881819 -0.055067558 0.09450619 2.6966283 0.27714065 -0.23294054 -0.5885817
0.35429615 2.3790843 -0.41658735 0.8402647 1.1901497 -0.1981999 0.018627306 0.5678359
00000000: c4c2 0dbe 3b0c 87be b739 283c 5b37 fa3e
00000010: caab eabe c9ad 78be 2322 e93e 2ede e83e
00000020: cb1e 1bbe dd18 9e3e 3e7f 06bf eb5d c63e
00000030: 9c3d 2740 ddde 6a3e 50b0 7fbe 8985 77be
00000040: 411b 81bc f456 f33d 858e 61bd 768c c13d
00000050: 8f95 2c40 61e5 8d3e f787 6ebe 4aad 16bf
00000060: 4e66 b53e eb42 1840 f04a d5be 961b 573f
00000070: d356 983f eaf4 4abe 4b98 983c b25d 113f

layer1.linear.weight f4 [32, 32]
1.9113716 1.195124 5.5116696 -2.457856 -2.9147778 0.958345 -0.428511 -1.0816866
2.7611465 1.3994322 -1.5325729 -0.6451414 0.35851467 2.3389323 -2.871921 1.7838073
0.15169328 -0.3979999 -6.0537653 -1.2814852 -0.096770234 0.3427481 -1.3436685 -0.18078063
-0.11288684 -2.3240464 6.010008 -0.34487563 -4.9669614 -1.6864997 -1.1834863 -0.15859361
0.9699754 4.236273 -2.0216508 0.34798744 -0.77796 1.5880327 -0.5388687 1.6997542
2.4755933 -6.864242 -1.7990311 0.99221575 -1.3812295 -2.3787265 0.648657 -1.7319325
-0.26325 -2.7745628 0.9811991 -1.6068096 -0.7387377 1.6868435 -0.03448985 2.1718163
-0.31617317 2.9602604 2.5658565 -0.017564662 -0.9177442 -2.5989702 -2.5389733 -3.1350176
-0.3878751 0.06542768 1.8326795 6.153353 0.10840902 3.4052951 -1.7305003 -1.0387067
2.7946818 2.617358 1.4223942 8.72853 0.3343341 -6.5062375 -2.9585135 2.2252452
-0.612345 -0.12499565 3.9402015 -0.22318703 0.7391895 -1.8682066 -0.12641828 -0.20654334
0.37945503 2.4143426 0.06911915 0.30709547 2.3891363 -1.8736027 -3.7986054 0.8111846
-4.7658896 -0.15797447 -1.508807 0.37333935 4.3532715 -0.82732105 3.9285815 -0.37329945
2.068243 -2.61264 3.3704834 0.716892 -0.7871555 -4.6625805 1.6889641 5.530302
-0.1630186 -0.8488506 3.331224 -0.67164886 -0.017261464 -0.44177294 -0.5049747 -0.16142625
0.10798762 0.841229 0.51535136 0.29333794 4.1703663 1.6374819 0.6950671 -1.2185531
-3.1084316 -1.4986211 2.7302403 -0.3758264 -3.0398767 -3.2388754 -0.9937298 0.8234171
-0.038247563 -3.95564 -3.1666176 0.35736278 0.32312998 -1.5952207 2.2064211 0.3125499
0.6509626 -0.6848776 1.5639153 2.8478315 0.4309252 -1.0581053 -0.30513135 -0.91745
0.07008017 0.7196948 -1.921106 0.2007414 1.503018 -3.1524723 -2.40622 -2.7958913
-1.761538 -4.637547 2.4813125 0.5887458 2.5012264 0.7065456 5.3372054 -4.1650467
5.2212944 -2.4969316 1.5390193 -0.102061205 -2.6481 -0.07234399 2.5537221 -2.7451673
-0.16774914 3.4560053 -1.4551101 0.261735 -0.06219204 2.6481314 -2.148594 1.4133898
0.34281388 -2.475594 -2.7888005 -0.07745369 -4.218409 -0.7126817 -4.212394 1.3572956
-0.5897667 -0.008992956 0.5085824 0.5218828 -0.5033632 -0.15490045 0.9464177 -1.782046
2.2555304 -2.4796755 -1.6048671 5.5453625 1.73773 -2.3647761 -1.1360928 0.23645768
-0.10090359 4.145546 -2.9125767 1.4719955 -0.14050587 -2.2920785 -0.33620405 -4.251606
-0.47391543 -0.55479306 -4.1277957 0.31811607 -1.4498565 2.05048 -2.0466018 5.9939914
0.26621696 1.544085 -1.3335164 -1.141638 -0.42048562 -2.6993728 -0.29051018 0.6326413
-1.3576393 -1.0496933 -1.3531752 -2.3228676 1.0206952 1.2021381 -0.69137245 -1.4935025
-0.11951281 -2.1868296 -3.09193 -4.3876357 -0.58164245 1.797848 -0.76253504 -0.7969195
-0.37341213 -1.5278063 2.5091367 0.4014036 -0.62412673 4.0090113 3.4164193 0.29127657
00000000: d3a7 f43f d3f9 983f 995f b040 834d 1dc0
00000010: b88b 3ac0 1956 753f cb65 dbbe b574 8abf
00000020: a0b6 3040 9820 b33f 592b c4bf fd27 25bf
00000030: 3c8f b73e 11b1 1540 8ecd 37c0 cc53 e43f
00000040: 7c55 1b3e a5c6 cbbe 72b8 c1c0 b507 a4bf
00000050: 792f c6bd ae7c af3e 54fd abbf 8f1e 39be
00000060: 3731 e7bd 2dbd 14c0 fc51 c040 8a93 b0be
00000070: 59f1 9ec0 39df d7bf 7b7c 97bf 5d66 22be
00000080: 4f50 783f 8c8f 8740 ba62 01c0 692b b23e
00000090: 6328 47bf a844 cb3f 4df3 09bf 8c91 d93f
000000a0: 1f70 1e40 dfa7 dbc0 a746 e6bf da01 7e3f
000000b0: 21cc b0bf 0e3d 18c0 630e 263f f7af ddbf
000000c0: b4c8 86be 7092 31c0 dd2f 7b3f f0ab cdbf
000000d0: ea1d 3dbf 7dea d73f 3b45 0dbd 0aff 0a40
000000e0: 73e1 a1be e874 3d40 fe36 2440 c4e3 8fbc
000000f0: 49f1 6abf 8755 26c0 8a7e 22c0 21a4 48c0
00000100: 9197 c6be f3fe 853d 3e95 ea3f 45e8 c440
00000110: 8c05 de3d 5bf0 5940 0981 ddbf 57f4 84bf
00000120: 11dc 3240 cb82 2740 0311 b63f 0fa8 0b41
00000130: d72d ab3e 1933 d0c0 4958 3dc0 6b6a 0e40
00000140: a4c2 1cbf b8fd ffbd 432c 7c40 248b 64be
00000150: 863b 3d3f 6521 efbf cb73 01be 1980 53be
00000160: ee47 c23e 9784 1a40 578e 8d3d 9e3b 9d3e
00000170: 9ce7 1840 37d2 efbf 5a1c 73c0 cba9 4f3f
00000180: 2b82 98c0 0fc4 21be 9620 c1bf 5626 bf3e
00000190: 004e 8b40 50cb 53bf e16d 7b40 1b21 bfbe
000001a0: 185e 0440 7e35 27c0 00b6 5740 3c86 373f
000001b0: 0683 49bf dc33 95c0 fa2f d83f 3cf8 b040
000001c0: 59ee 26be 464e 59bf c632 5540 2ef1 2bbf
000001d0: ea67 8dbc 1030 e2be 0646 01bf ec4c 25be
000001e0: 9d28 dd3d c95a 573f 11ee 033f 6430 963e
000001f0: a473 8540 0299 d13f ebef 313f 8cf9 9bbf
00000200: 8bf0 46c0 d1d2 bfbf 42bc 2e40 516c c0be
00000210: 578d 42c0 bc49 4fc0 1465 7ebf 77cb 523f
00000220: 7aa9 1cbd 3529 7dc0 dda9 4ac0 41f8 b63e
00000230: 4b71 a53e 3130 ccbf 0136 0d40 8a06 a03e
00000240: 7ca5 263f 2354 2fbf 602e c83f df42 3640
00000250: 3aa2 dc3e ff6f 87bf 2d3a 9cbe 01de 6abf
00000260: 3186 8f3d eb3d 383f cde6 f5bf 278f 4d3e
00000270: e562 c03f 1bc2 49c0 82ff 19c0 e2ef 32c0
00000280: 147a e1bf c966 94c0 d3cd 1e40 0bb8 163f
00000290: 1814 2040 2ce0 343f 63ca aa40 1048 85c0
000002a0: d814 a740 bacd 1fc0 96fe c43f 7705 d1bd
000002b0: 787a 29c0 1629 94bd 2f70 2340 d2b0 2fc0
000002c0: 6ec6 2bbe 312f 5d40 0c41 babf 2102 863e
000002d0: 15bd 7ebd fc7a 2940 9082 09c0 f5e9 b43f
000002e0: 4d85 af3e 2270 1ec0 b57b 32c0 0aa0 9ebd
000002f0: 35fd 86c0 4f72 36bf efcb 86c0 ddbb ad3f
00000300: f3fa 16bf 3157 13bc 7532 023f 1c9a 053f
00000310: 69dc 00bf 399e 1ebe 6e48 723f 151a e4bf
00000320: 9c5a 1040 01b3 1ec0 496c cdbf 9c73 b140
00000330: f06d de3f 7e58 17c0 7d6b 91bf f621 723e
00000340: 8ba6 cebd 50a8 8440 a867 3ac0 596a bc3f
00000350: c5e0 0fbe 6ab1 12c0 f022 acbe 280d 88c0
00000360: 0ba5 f2be eb06 0ebf e716 84c0 1ce0 a23e
00000370: e694 b9bf 103b 0340 86fb 02c0 c7ce bf40
00000380: 974d 883e 94a4 c53f aab0 aabf 3221 92bf
00000390: e449 d7be 86c2 2cc0 c0bd 94be c8f4 213f
000003a0: 20c7 adbf 5a5c 86bf d834 adbf dda9 14c0
000003b0: 24a6 823f a9df 993f c9fd 30bf 172b bfbf
000003c0: 22c3 f4bd 04f5 0bc0 2ee2 45c0 8367 8cc0
000003d0: 85e6 14bf e21f e63f 7f35 43bf eb02 4cbf
000003e0: e02f bfbe 288f c3bf b295 2040 c684 cd3e
000003f0: c5c6 1fbf d249 8040 9da6 5a40 3422 953e

layer1.agg.bias f4 [32]
0.0 0.0 0.0 0.0 0.0 0.0 0.0 0.0
0.0 0.0 0.0 0.0 0.0 0.0 0.0 0.0
0.0 0.0 0.0 0.0 0.0 0.0 0.0 0.0
0.0 0.0 0.0 0.0 0.0 0.0 0.0 0.0
00000000: 0000 0000 0000 0000 0000 0000 0000 0000
00000010: 0000 0000 0000 0000 0000 0000 0000 0000
00000020: 0000 0000 0000 0000 0000 0000 0000 0000
00000030: 0000 0000 0000 0000 0000 0000 0000 0000
00000040: 0000 0000 0000 0000 0000 0000 0000 0000
00000050: 0000 0000 0000 0000 0000 0000 0000 0000
00000060: 0000 0000 0000 0000 0000 0000 0000 0000
00000070: 0000 0000 0000 0000 0000 0000 0000 0000

layer1.agg.mlp.0.weight f4 [1, 64]
0.10913247 -0.06379746 -0.002635762 0.036370546 -0.06006135 -0.056372568 -0.032823145 0.07312201
0.015985146 -0.108888865 -0.016193375 -0.11067453 -0.05747646 -0.0773308 -0.064512 -0.055225164
-0.079193875 0.10077204 -0.03518355 0.0076823086 -0.07214272 0.0036613494 0.11840509 -0.08386333
-0.07009877 0.123847246 0.005206391 -0.11761382 0.11530374 -0.065410405 0.035029933 0.070121914
0.019185841 -0.029167548 0.08255133 -0.046731904 0.100302905 -0.046656877 -0.0048365146 0.09094705
0.063779846 -0.0378325 -0.01766713 0.11823872 0.105806455 0.11639315 -0.03114225 0.093586534
0.07412514 0.08940807 0.047133416 -0.09883073 0.0922986 -0.01105988 -0.011932164 0.0017145574
0.0323478 0.12472516 0.010739043 0.013148963 0.11892134 -0.08276197 0.120052025 0.11411792
00000000: d880 df3d 3ea8 82bd c0bc 2cbb 48f9 143d
00000010: e402 76bd ece6 66bd 9071 06bd fec0 953d
00000020: 48f3 823c 2001 dfbd f8a7 84bc 54a9 e2bd
00000030: 706c 6bbd 9c5f 9ebd de1e 84bd c833 62bd
00000040: 6630 a2bd 9261 ce3d a01c 10bd e0bb fb3b
00000050: 90bf 93bd 40f3 6f3b 5e7e f23d 8ac0 abbd
00000060: f28f 8fbd a0a3 fd3d 609a aa3b 84df f0bd
00000070: 5e24 ec3d e4f5 85bd 8c7b 0f3d 149c 8f3d
00000080: a02b 9d3c c8f0 eebc ac10 a93d f469 3fbd
00000090: 9c6b cd3d 481b 3fbd a07b 9ebb 7242 ba3d
000000a0: 029f 823d 40f6 1abd a8ba 90bc 2427 f23d
000000b0: 0eb1 d83d 885f ee3d 081e ffbc 4caa bf3d
000000c0: ecce 973d 941b b73d f80e 413d c467 cabd
000000d0: 0c07 bd3d 8034 35bc 207f 43bc 00bb e03a
000000e0: 207f 043d e86f ff3d d0f2 2f3c c06e 573c
000000f0: 088d f33d 1c7f a9bd d6dd f53d a8b6 e93d

layer2.linear.bias f4 [16]
1.9362149 -0.26621625 -0.99253845 -0.5970281 0.117744476 -1.2207531 -0.63280326 2.3117564
0.7557673 -0.7024746 -1.1899462 1.3786552 0.6441286 -1.1942353 -0.5368151 -0.4065776
00000000: e4d5 f73f 7f4d 88be 0017 7ebf d5d6 18bf
00000010: 0424 f13d a341 9cbf 65ff 21bf d1f3 1340
00000020: f779 413f 60d5 33bf 2850 98bf c677 b03f
00000030: 9de5 243f b4dc 98bf b76c 09bf f02a d0be

layer2.linear.weight f4 [16, 32]
2.9893425 -1.6952709 0.36022747 -1.2673581 -0.27682346 0.048758384 4.5365376 2.3905585
-0.19910409 0.35454944 0.29418758 2.9101832 -0.3238329 -0.21251829 -3.0408936 2.9121828
2.0734327 1.6847613 1.1725298 0.25798765 0.4963623 5.1097164 0.6647567 -0.24690622
3.0367584 2.2214725 1.0869792 0.053828273 2.6317244 -0.106029704 -1.9711801 1.1902637
3.483042 2.9659116 2.8146179 -0.65247333 0.27841842 2.5171802 1.9921058 1.2256039
-0.10843134 -0.17810166 4.0567293 3.6035097 0.83033097 0.78258765 -1.1250322 -2.037385
-1.3105072 -2.013045 0.23458205 2.006298 0.050905038 1.2352985 2.371885 -0.40931395
-0.17287105 2.924441 1.7905029 0.24777398 -0.20840037 -0.103164665 3.4072335 -0.08332922
-2.4922647 -7.254646 -7.1996074 -1.3900768 -3.5242932 -7.902881 -3.2208045 -2.6519406
-9.191259 -5.5822654 -9.430295 -9.908781 3.7592947 -6.5941143 -4.8294024 -3.3000424
-4.0636754 -4.5134845 -6.8248076 -4.766663 4.5486298 -4.739499 -5.463561 -3.1524944
-7.285437 -1.8252375 -4.0880723 0.6394921 -4.26057 -0.6210177 -4.9611573 -6.328232
-1.6566885 1.3779532 -5.664405 -4.326229 4.0299225 3.164992 0.71987987 0.8845725
3.5822392 -11.95256 2.2543178 1.5074235 -5.346316 2.929699 1.7124188 2.2004013
1.8895226 1.6283193 -1.6048168 -0.37501138 -2.0614498 -2.264447 0.61916584 4.9785666
-0.59343493 -5.903036 -0.22232519 0.8499178 2.2039075 -7.3430824 0.69714963 -1.0274158
-1.0902296 0.28634697 2.0535483 1.4528692 -1.0216159 1.1306757 4.1446214 2.513488
0.046513308 1.443305 2.4123318 1.0186005 0.9625303 4.926773 -0.8616612 -0.86618185
1.3945295 2.6087847 0.0689792 0.11361191 -0.14063655 -0.49402907 -0.9384183 2.6035316
2.8930495 1.6397687 -1.1827079 0.43331903 -0.91475815 3.2806985 5.024107 2.8944244
-3.8682187 -6.258839 -6.164536 -3.4626276 -2.7434075 -9.31893 -4.15958 -5.62504
-10.993211 -8.073137 -8.463181 -9.594232 3.7777545 -9.227666 -6.082171 -4.864553
-6.183328 -4.1313353 -6.9527087 -6.4833035 3.7255247 -4.2008085 -7.2315044 -7.2005816
-11.237414 -2.9520152 -5.231537 1.31161 -3.2411213 -2.6227956 -8.100678 -5.628737
1.4070876 -1.0970956 1.415681 -9.489852 2.5185113 -0.22772731 1.0271631 0.031350967
-1.9665986 -1.2757033 0.63473743 2.6516266 -6.5100117 0.9492087 2.8642118 -2.821139
-1.3628603 4.203827 1.4847519 -9.895556 -1.8120173 -0.31480557 -5.105345 -6.548828
-1.0793002 -5.418853 -0.05832501 1.0425184 1.3083775 0.1720619 2.4916039 -6.2013707
0.09239071 1.2035242 3.9742546 1.8635973 6.6456566 0.76234543 2.841904 -1.2431434
1.4801304 0.6673804 -0.008727838 2.7698123 1.07706 3.4723072 -0.56560063 1.3228625
2.1139703 2.6523588 -1.2301564 1.8918844 -0.10027664 2.1396897 0.69864005 0.38120174
0.20152646 0.5837596 1.8626409 -0.37529147 0.56610644 1.0898135 -0.009620521 0.06271475
00000000: 6351 3f40 a3fe d8bf bc6f b83e ca38 a2bf
00000010: cebb 8dbe dfb6 473d 512b 9140 e9fe 1840
00000020: f1e1 4bbe 8187 b53e c19f 963e 7140 3a40
00000030: 6dcd a5be 659e 59be 009e 42c0 3461 3a40
00000040: 1fb3 0440 42a6 d73f 7515 963f f516 843e
00000050: 3323 fe3e cc82 a340 7f2d 2a3f fcd4 7cbe
00000060: 405a 4240 9b2c 0e40 2222 8b3f 097b 5c3d
00000070: 2c6e 2840 1a26 d9bd a14f fcbf 905a 983f
00000080: 29ea 5e40 7fd1 3d40 b322 3440 7e08 27bf
00000090: dc8c 8e3e 7b19 2140 53fd fe3f 97e0 9c3f
000000a0: 4011 debd 4860 36be bad0 8140 e79f 6640
000000b0: 9290 543f aa57 483f 0e01 90bf 8464 02c0
000000c0: b3be a7bf bbd5 00c0 4736 703e 3067 0040
000000d0: cd81 503d 431e 9e3f f7cc 1740 9991 d1be
000000e0: 1c05 31be 0b2a 3b40 332f e53f 76b8 7d3e
000000f0: e866 55be ff47 d3bd 1d10 5a40 83a8 aabd
00000100: 4481 1fc0 0f26 e8c0 2f63 e6c0 09ee b1bf
00000110: 058e 61c0 67e4 fcc0 a921 4ec0 65b9 29c0
00000120: 660f 13c1 eba1 b2c0 7de2 16c1 5e8a 1ec1
00000130: 4998 7040 fc02 d3c0 778a 9ac0 e533 53c0
00000140: a109 82c0 776e 90c0 d364 dac0 8188 98c0
00000150: 608e 9140 faa9 97c0 7ed5 aec0 78c2 49c0
00000160: 4d22 e9c0 62a1 e9bf 7dd1 82c0 c1b5 233f
00000170: 9756 88c0 04fb 1ebf cdc1 9ec0 e080 cac0
00000180: 5e0e d4bf c560 b03f ce42 b5c0 7870 8ac0
00000190: 20f5 8040 3b8f 4a40 0c4a 383f 5873 623f
000001a0: 6843 6540 b03d 3fc1 be46 1040 41f3 c03f
000001b0: 0515 abc0 3080 3b40 8a30 db3f 60d3 0c40
000001c0: e0db f13f c46c d03f a36a cdbf 7e01 c0be
000001d0: cbee 03c0 b3ec 10c0 a781 1e3f 6b50 9f40
000001e0: 5aeb 17bf ace5 bcc0 37a9 63be 3794 593f
000001f0: d20c 0d40 88fa eac0 6678 323f 5c82 83bf
00000200: a58c 8bbf 129c 923e 566d 0340 9ef7 b93f
00000210: 4fc4 82bf fbb9 903f bda0 8440 fddc 2040
00000220: bd84 3e3d 38be b83f a563 1a40 8061 823f
00000230: 6368 763f 20a8 9d40 d495 5cbf 18be 5dbf
00000240: f17f b23f 54f6 2640 f844 8d3d 5cad e83d
00000250: 0703 10be 61f1 fcbe 2f3c 70bf 43a0 2640
00000260: b927 3940 f1e3 d13f f962 97bf fedb dd3e
00000270: 972d 6abf f7f6 5140 7cc5 a040 403e 3940
00000280: e590 77c0 6948 c8c0 e143 c5c0 b19b 5dc0
00000290: fd93 2fc0 561a 15c1 481b 85c0 5400 b4c0
000002a0: 31e4 2fc1 922b 01c1 3069 07c1 f981 19c1
000002b0: bbc6 7140 85a4 13c1 25a1 c2c0 6baa 9bc0
000002c0: d3dd c5c0 e633 84c0 977c dec0 3977 cfc0
000002d0: ff6e 6e40 066d 86c0 7c68 e7c0 2a6b e6c0
000002e0: 73cc 33c1 d1ed 3cc0 c068 a7c0 d6e2 a73f
000002f0: 886e 4fc0 e2db 27c0 619c 01c1 9d1e b4c0
00000300: 721b b43f a16d 8cbf 0935 b53f 6fd6 17c1
00000310: 4a2f 2140 5931 69be 157a 833f df69 003d
00000320: 81b9 fbbf 3f4a a3bf 277e 223f 40b4 2940
00000330: 0452 d0c0 57ff 723f 3f4f 3740 8b8d 34c0
00000340: 3572 aebf c085 8640 5a0c be3f 3354 1ec1
00000350: 2ff0 e7bf 322e a1be fc5e a3c0 0090 d1c0
00000360: 8226 8abf 3e67 adc0 35e6 6ebd 3e71 853f
00000370: ea78 a73f ff30 303e 7076 1f40 a171 c6c0
00000380: 5737 bd3d 150d 9a3f 305a 7e40 5b8a ee3f
00000390: 38a9 d440 1229 433f c1e1 3540 531f 9fbf
000003a0: ea74 bd3f 71d9 2a3f 35ff 0ebc 9b44 3140
000003b0: 1add 893f 483a 5e40 34cb 10bf 8f53 a93f
000003c0: 4a4b 0740 3fc0 2940 c475 9dbf 4529 f23f
000003d0: d75d cdbd adf0 0840 13da 323f e02c c33e
000003e0: f45c 4e3e 4571 153f 046b ee3f 3426 c0be
000003f0: 5aec 103f 027f 8b3f 649f 1dbc 9770 803d

layer2.agg.bias f4 [16]
0.0 0.0 0.0 0.0 0.0 0.0 0.0 0.0
0.0 0.0 0.0 0.0 0.0 0.0 0.0 0.0
00000000: 0000 0000 0000 0000 0000 0000 0000 0000
00000010: 0000 0000 0000 0000 0000 0000 0000 0000
00000020: 0000 0000 0000 0000 0000 0000 0000 0000
00000030: 0000 0000 0000 0000 0000 0000 0000 0000

layer2.agg.mlp.0.weight f4 [1, 32]
0.014177039 -0.09470422 0.1302077 -0.0064407587 -0.06308125 -0.0010267347 -0.12406702 -0.15604192
-0.058397368 -0.1592769 0.06010303 0.0769075 0.0060712546 0.054497883 -0.08658079 0.11059709
0.025961906 0.11986537 -0.088612 0.1387213 0.056257337 0.014297977 -0.094601996 -0.054326467
-0.11598966 -0.021949783 0.15534784 -0.03656347 0.16769858 0.06062436 0.093956724 -0.14978197
00000000: d046 683c 49f4 c1bd 2b55 053e 000d d3bb
00000010: be30 81bd 8093 86ba da16 febd 74c9 1fbe
00000020: 1432 6fbd 7c19 23be 982e 763d ae81 9d3d
00000030: 60f1 c63b 2c39 5f3d 4551 b1bd ba80 e23d
00000040: 10ae d43c fa7b f53d 357a b5bd f50c 0e3e
00000050: 186e 663d 1042 6a3c b1be c1bd 6e85 5ebd
00000060: fd8b edbd 08d0 b3bc 8113 1f3e 94c3 15bd
00000070: 2db9 2b3e 4051 783d 626c c03d 7260 19be
