models/temporal_gnn/saved_models/dgd/dgd_GRUGCN_seed_1024.pth (torch, 421313 bytes, 13 tensors)

feat f4 [771, 128]
0	0x3faecf3f	1.3656996
1	0xbe06f082	-0.13177684
2	0xbeb21d6f	-0.3478808
3	0xbe868684	-0.26274502
4	0xbe0d06c6	-0.13772115
5	0xbf16505b	-0.5871636
6	0xbea761f4	-0.3269192
7	0x3f34382a	0.703982
8	0x3f031da6	0.51217115
9	0x3dfdfccc	0.12401733
10	0xbf48c462	-0.78424656
11	0xbe5edb88	-0.21763432
12	0x3e91133a	0.2833498
13	0xbeb26e3b	-0.34849724
14	0x3e672046	0.22570905
15	0xbf2a66e5	-0.66563255
16	0xbf309245	-0.6897319
17	0x3ed93732	0.42424923
18	0xbf57159d	-0.84017354
19	0x3e7b81f3	0.2456129
20	0x3f777286	0.96659124
21	0x3f2a0442	0.66412747
22	0x3eb6762d	0.35637036
23	0xbe55f1b0	-0.20892978
24	0x3ec11ec4	0.37718785
25	0x3d89d57c	0.06730172
26	0xbef1fdce	-0.4726395
27	0xbf152b6a	-0.5826937
28	0xbe16e32f	-0.14735101
29	0x3f25f196	0.64821756
30	0xbed10f81	-0.4083214
31	0x3c0be927	0.008539475
32	0x3ca57318	0.020196483
33	0xbf01407d	-0.50489026
34	0xbd826593	-0.0636703
35	0xbdfbf979	-0.123034425
36	0x3d184679	0.037176583
37	0x3f4616c6	0.773785
38	0x3f2a9d80	0.66646576
39	0xbeaca92c	-0.33722818
40	0x3f439739	0.7640262
41	0xbc5c426d	-0.0134435715
42	0xbb88ddc5	-0.0041768276
43	0xbee31774	-0.4435383
44	0x3fda1dfe	1.7040403
45	0x3f825fe7	1.0185517
46	0x3f4f8efa	0.8107754
47	0xbf8f3e0c	-1.119081
48	0x3f0c6865	0.54846793
49	0x3d925f9e	0.07147144
50	0xbee09533	-0.4386383
51	0x3f06c6dd	0.5264719
52	0xbf38949c	-0.7210176
53	0xbecc4607	-0.39897177
54	0x3f185172	0.59499276
55	0xbf260259	-0.6484733
56	0x3e01973c	0.12655348
57	0xbe113828	-0.14181578
58	0x3f2818b8	0.6566272
59	0xbccab860	-0.02474612
60	0xbf0172fd	-0.50566083
61	0x3f1e2844	0.6178019
62	0xbf0b7400	-0.54473877
63	0xbdedac36	-0.11605112
64	0xbf96f786	-1.1794288
65	0x3f0d2ca2	0.5514623
66	0xbf1f933d	-0.6233404
67	0x3e1092f9	0.14118566
68	0x3d0cbf6e	0.03436225
69	0xbd31008f	-0.043213423
70	0x3f2e134f	0.6799821
71	0xbf8d973b	-1.1061777
72	0x3c91c3f4	0.017793633
73	0xbe86bcdb	-0.2631596
74	0x3f88da59	1.0691634
75	0xbf3e0582	-0.74227154
76	0xbf05c86b	-0.5225894
77	0xbf8ebc48	-1.1151209
78	0x3eb1ae7e	0.3470344
79	0xbec69936	-0.38788766
80	0x3e922dbe	0.28550524
81	0xbeb6da7a	-0.3571356
82	0x3f37147c	0.7151563
83	0xbf69f25c	-0.91385436
84	0xbf3400bd	-0.70313627
85	0x3ea1239e	0.31472486
86	0x3dd32022	0.10308863
87	0x3e9961d4	0.2995745
88	0xbf0b5ddd	-0.544401
89	0x3f4ea1c9	0.80715615
90	0x3e64026c	0.22266549
91	0xbf43d986	-0.7650379
92	0xbf24ccc6	-0.6437496
93	0xbddee00d	-0.10882578
94	0x3ee50cff	0.44736478
95	0xbe8c15c2	-0.2736035
96	0x3f0b3f57	0.54393524
97	0x3f838b67	1.0276917
98	0xbe9789b9	-0.29597262
99	0x3c1bdf75	0.0095137255
100	0x3f18116d	0.5940159
101	0xbf7b6548	-0.9820142
102	0x3ebcb103	0.368538
103	0xbf474068	-0.7783265
104	0xbd2a02e7	-0.041506674
105	0xbf1c8d09	-0.611527
106	0xbf21c50b	-0.6319129
107	0xbcff39b1	-0.03115544
108	0xbf6b245f	-0.9185237
109	0x3e888588	0.26664376
110	0x3f0dc702	0.55381787
111	0xbdcc9cc4	-0.09990838
112	0xbdeefc00	-0.11669159
113	0x3f11fac6	0.57023275
114	0x3e7bffac	0.2460925
115	0x3efcdad7	0.49385712
116	0xbe4e798e	-0.20163557
117	0x3f067c28	0.525332
118	0xbdce29a2	-0.100665346
119	0xbeedb6b8	-0.46428466
120	0x3e90c91e	0.2827844
121	0xbebf6184	-0.37379086
122	0xbf1ca9ca	-0.6119658
123	0x3f49c593	0.788171
124	0xbee531de	-0.44764608
125	0xbc7929cb	-0.015207718
126	0xbec3c0ee	-0.3823313
127	0xbf81677b	-1.0109705
128	0x3f864049	1.0488368
129	0x3f480e6e	0.7814702
130	0xbf10bf2b	-0.565417
131	0xbf06ba4e	-0.5262803
132	0xbf059693	-0.52182883
133	0xbf5d0f6b	-0.8635165
134	0xbed73360	-0.42031384
135	0x3f68e3ec	0.9097278
136	0x3f1fded0	0.6244936
137	0x3ecb74c8	0.39737535
138	0xbf7d0fb4	-0.98852086
139	0xbf43da85	-0.7650531
140	0xbf216e3f	-0.6305885
141	0xbf359d95	-0.70943576
142	0x3f17fd7b	0.59371156
143	0xbf71720e	-0.9431466
144	0xbf6ad0cd	-0.91724855
145	0xbef57547	-0.47941038
146	0xbf7dd1fe	-0.9914855
147	0x3f0fb78e	0.5613946
148	0x3f92539d	1.1431767
149	0x3f5743b4	0.8408768
150	0x3efd1e4c	0.49437177
151	0xbf3e5201	-0.7434388
152	0x3f41567b	0.75522584
153	0x3f04bda4	0.5185187
154	0xbf2c2fa1	-0.67260176
155	0x3e7fc0fb	0.2497596
156	0xbee969ea	-0.4558862
157	0x3f4fb1f8	0.81130934
158	0xbf5526a9	-0.83262116
159	0x3ebb8533	0.3662506
160	0xbf0606a2	-0.5235387
161	0xbf32568d	-0.69663316
162	0x3f4124f7	0.7544703
163	0xbf062d8c	-0.5241325
164	0x3ecc5163	0.39905843
165	0x3f818f8e	1.0121934
166	0x3f60d28e	0.8782128
167	0xbf1df877	-0.6170725
168	0x3f712d3a	0.94209635
169	0x3f087e57	0.5331778
170	0x3f07ca84	0.5304339
171	0xbf510c54	-0.81659436
172	0x3facb8fa	1.349395
173	0x3f88133c	1.063087
174	0x3f692fa3	0.9108831
175	0xbf8c4b83	-1.0960544
176	0x3f5a04fb	0.8516385
177	0x3ef3a49d	0.47586527
178	0xbf2cee57	-0.6755118
179	0x3f4dcc13	0.8038952
180	0x3ee0f1fc	0.4393462
181	0x3f1ebaeb	0.62003964
182	0x3f5411e2	0.82839787
183	0x3dfea50b	0.12433823
184	0x3f01656b	0.50545377
185	0x3ec02613	0.37529048
186	0x3f6bdee7	0.92136997
187	0xbec71188	-0.38880563
188	0x3e8f7f04	0.28026593
189	0x3f52765d	0.8221186
190	0xbf4f13a5	-0.8088935
191	0xbf09cfb0	-0.5383253
192	0xbf8376d3	-1.0270637
193	0xbd906045	-0.07049612
194	0x3e6491af	0.22321199
195	0xbf2a119e	-0.6643313
196	0x3ed01803	0.4064332
197	0xbf1f9bfe	-0.623474
198	0x3f662256	0.8989614
199	0xbf8f6b7a	-1.1204674
200	0xbf026508	-0.5093541
201	0x3f6d19b9	0.92617375
202	0x3ee91411	0.45523122
203	0xbf505231	-0.81375414
204	0xbf3dd6b3	-0.7415573
205	0xbf837097	-1.0268735
206	0x3f48ec27	0.7848534
207	0xbf35150c	-0.7073524
208	0x3f2b1bfa	0.66839564
209	0xbf431cf9	-0.76216084
210	0x3f677a05	0.9042056
211	0xbf708c96	-0.9396452
212	0xbf510c5d	-0.8165949
213	0x3f1d7c94	0.61518216
214	0x3f3d56fd	0.7396086
215	0xbf08cff7	-0.5344233
216	0x3eb18adb	0.3467625
217	0x3f7c8c18	0.98651266
218	0xbf1569c3	-0.58364505
219	0xbf6037fa	-0.87585413
220	0xbf7c5c83	-0.9857866
221	0xbee24328	-0.4419186
222	0xbf169eac	-0.58835864
223	0xbf17e2e3	-0.59330577
224	0x3f2ebeec	0.68260074
225	0x3f87a996	1.0598629
226	0xbf0162d0	-0.505414
227	0x3ef7ab47	0.48372862
228	0x3f748da5	0.9552863
229	0xbf6dfc5c	-0.92963195
230	0x3f579acd	0.8422058
231	0x3b2a8aed	0.0026022748
232	0xbf4cb2cf	-0.7996034
233	0xbf49e654	-0.7886708
234	0xbf516add	-0.81803685
235	0xbf0650ed	-0.5246723
236	0xbf1a29bf	-0.6021995
237	0x3f25191b	0.6449143
238	0x3f45a6cb	0.7720763
239	0x3e8d5eb2	0.2761131
240	0xbede7170	-0.4344592
241	0x3f0968b9	0.5367542
242	0x3ef17804	0.47161877
243	0x3f40a19d	0.752466
244	0xbf1f25ff	-0.6216735
245	0x3f795390	0.9739313
246	0x3ebc1825	0.3673717
247	0xbf57ce61	-0.84299284
248	0x3f3a25b4	0.7271378
249	0xbf1e23ce	-0.61773384
250	0xbf64ab97	-0.89324325
251	0x3f530be4	0.8244002
252	0x3f0393c7	0.51397365
253	0xbf117267	-0.5681519
254	0xbf3fcf84	-0.7492602
255	0xbf88e0d0	-1.0693607

Q f4 [16, 16]
0	0x3f36655a	0.712484
1	0xbf3ce19f	-0.7378177
2	0x3f640af8	0.89079237
3	0xbf35da52	-0.71036255
4	0x3f6a3433	0.914859
5	0xbf397b10	-0.72453403
6	0x3f33d875	0.7025216
7	0x3f3745d1	0.71590906
8	0x3f553b00	0.8329315
9	0xbf545034	-0.8293488
10	0x3f397698	0.72446585
11	0xbf11f442	-0.5701333
12	0xbf3def67	-0.74193424
13	0xbf0f3877	-0.55945534
14	0xbf316d41	-0.69307333
15	0xbf4c3bff	-0.79779047
16	0xbd9f74b8	-0.07785934
17	0x3d9f0c45	0.07766012
18	0x3de6c7df	0.11268591
19	0x3d9f6a05	0.077838935
20	0xbda4689d	-0.08027766
21	0x3d9fadc0	0.07796812
22	0xbd9f4656	-0.077770874
23	0xbd9f8369	-0.077887364
24	0xbda17d06	-0.078851745
25	0xbde569e3	-0.11201837
26	0xbd9fabcf	-0.07796442
27	0xbda7241e	-0.08161186
28	0x3d9ff8ba	0.07811113
29	0x3d9c5f72	0.07635392
30	0x3d9f11d1	0.0776707
31	0x3da127e4	0.07868937
32	0xb8aec5cc	-8.333809e-05
33	0x38f4cb36	0.00011672678
34	0xb9e0259c	-0.0004275263
35	0x38abefdf	8.198595e-05
36	0xb981320e	-0.0002464209
37	0x38c01c8d	9.1605914e-05
38	0xb8a151c7	-7.6923105e-05
39	0xb8b40b2a	-8.585148e-05
40	0xb9511388	-0.00019939069
41	0x3a93b73a	0.0011269816
42	0xb8c0411e	-9.1674025e-05
43	0x3ba5cd31	0.005059861
44	0x38dd70ea	0.00010559133
45	0x3751fd48	1.2516342e-05
46	0x3896b7c2	7.186785e-05
47	0x391e8cc2	0.0001512049
48	0xb001be02	-4.7199944e-10
49	0xafcb83c6	-3.7019116e-10
50	0x300fb080	5.227392e-10
51	0x300137f6	4.700945e-10
52	0x2fca1b12	3.676282e-10
53	0x30039b8e	4.787858e-10
54	0xaffd99e8	-4.612979e-10
55	0xb00270f0	-4.745422e-10
56	0x30171d77	5.497535e-10
57	0xb00dc004	-5.156837e-10
58	0xb0038f27	-4.7860954e-10
59	0x2d00b520	7.3161754e-12
60	0x2ff9967b	4.539976e-10
61	0x2dc8c0a9	2.2822926e-11
62	0x2ff87b50	4.5198556e-10
63	0x2fc2fcaa	3.5467923e-10
64	0xbea52358	-0.32253528
65	0x3eaaa983	0.33332452
66	0xbeb62ba9	-0.35580185
67	0x3ea49d5e	0.32151312
68	0xbec669df	-0.38752648
69	0x3ea80939	0.32819536
70	0xbea2a968	-0.31769872
71	0xbea5f6e1	-0.32414916
72	0xbebc9d06	-0.3683855
73	0x3eacd189	0.33753613
74	0xbea8040b	-0.32815585
75	0x3e5fb152	0.21844986
76	0x3eabf8ec	0.3358835
77	0x3e73f104	0.23822409
78	0x3ea0333f	0.31289098
79	0x3eb73cce	0.35788578
80	0xb8c430b7	-9.355082e-05
81	0x38cbc552	9.716548e-05
82	0xb964f617	-0.0002183545
83	0x38c37366	9.319819e-05
84	0xb8f5b40b	-0.00011716046
85	0x38c8601d	9.554646e-05
86	0xb8c0b112	-9.188255e-05
87	0xb8c5626e	-9.412026e-05
88	0xb8e82c15	-0.00011070833
89	0x39608e0b	0.0002141522
90	0xb8c85956	-9.553383e-05
91	0x390d5fa4	0.00013482437
92	0x38ce3dde	9.834369e-05
93	0x388ddd28	6.7645975e-05
94	0x38bd4fdd	9.027098e-05
95	0x38dfd7dc	0.000106736756
96	0xbd2c47e5	-0.04206075
97	0x3d3abcb6	0.045590125
98	0xbd8b1dc1	-0.067927845
99	0x3d2b035b	0.041751247
100	0xbd8729d2	-0.065997735
101	0x3d336c6a	0.043804564
102	0xbd264d6f	-0.04060119
103	0xbd2e5202	-0.042558677
104	0xbd6ccb45	-0.05781104
105	0x3d7ba492	0.061436243
106	0xbd3361e6	-0.043794535
107	0x3cc397d2	0.023876105
108	0x3d3d7cc4	0.046261564
109	0x3ca2ea49	0.019887106
110	0x3d208ae9	0.039194975
111	0x3d5bddf1	0.053678457
112	0xa582de61	-2.2702095e-16
113	0xb3e6da49	-1.07499154e-07
114	0x251a0be0	1.3361394e-16
115	0x256f1933	2.0738483e-16
116	0x25b7c81c	3.188104e-16
117	0x25a65d77	2.8859744e-16
118	0xa53e856c	-1.6525078e-16
119	0xa5b98e0b	-3.2188636e-16
120	0x33299b36	3.9489542e-08
121	0x265407a5	7.3562636e-16
122	0xa5c25076	-3.3708158e-16
123	0x25aa81ce	2.9578258e-16
124	0xa609fa32	-4.78705e-16
125	0xa5c541b0	-3.4218564e-16
126	0x25958fd7	2.594485e-16
127	0x260133ff	4.4826334e-16
128	0x37b6700f	2.1748272e-05
129	0xb7c9d7c9	-2.406155e-05
130	0x388496af	6.3223175e-05
131	0xb7b4e7cb	-2.156561e-05
132	0x3816a3a7	3.59152e-05
133	0xb7bf27f3	-2.2787577e-05
134	0x37af336b	2.0885569e-05
135	0x37b8ec42	2.2044525e-05
136	0x3804485c	3.1538642e-05
137	0xb8701dee	-5.7248333e-05
138	0x37bf1973	2.2780825e-05
139	0xb79c2945	-1.8615867e-05
140	0xb7cbb379	-2.428306e-05
141	0xb7144935	-8.838532e-06
142	0xb7a85fcd	-2.0071771e-05
143	0xb7f1cab3	-2.8823828e-05
144	0xbece9177	-0.40345356
145	0x3ece8ab7	0.40340206
146	0xbed45d43	-0.41477403
147	0x3ece8b2d	0.40340558
148	0xbecf322f	-0.40467975
149	0x3eceb201	0.4037018
150	0xbece7495	-0.4032332
151	0xbece9a2b	-0.40351996
152	0xbecf2cd8	-0.404639
153	0x3ed41982	0.4142571
154	0xbeceb184	-0.4036981
155	0x3ece3a99	0.4027908
156	0x3eced410	0.40396166
157	0x3ecc683a	0.3992327
158	0x3ece5120	0.40296268
159	0x3ecf4479	0.40481928
160	0x271490d6	2.0617642e-15
161	0x272d60e1	2.4061091e-15
162	0xa6909068	-1.0031149e-15
163	0xa7181782	-2.1106981e-15
164	0x2756b5e4	2.979707e-15
165	0xa6f128f0	-1.673383e-15
166	0x27216b81	2.2401516e-15
167	0x270df4b0	1.9700326e-15
168	0xa6eae666	-1.6299461e-15
169	0xa753c606	-2.938948e-15
170	0x26f197b2	1.6763851e-15
171	0xa6f0839d	-1.6689019e-15
172	0xa6730bb7	-8.432344e-16
173	0x26ea16e8	1.624322e-15
174	0xa724c513	-2.2866406e-15
175	0x2730f06d	2.4555242e-15
176	0x37db0017	2.6106876e-05
177	0xb756e1e8	-1.2807992e-05
178	0x37c75e29	2.3766495e-05
179	0xb7db20aa	-2.6122045e-05
180	0x37b43450	2.1482032e-05
181	0xb7da89be	-2.6051766e-05
182	0x37db50d2	2.614447e-05
183	0x37da70a8	2.6040085e-05
184	0x3763e6af	1.3583965e-05
185	0xb7dce882	-2.6334314e-05
186	0x37da3c8a	2.6015816e-05
187	0xb7c92887	-2.397994e-05
188	0xb7cf347f	-2.4700768e-05
189	0xb7d32694	-2.5171124e-05
190	0xb7d392e6	-2.5221565e-05
191	0xb7d38b1b	-2.5217936e-05
192	0x2509809f	1.1926434e-16
193	0x25ce0271	3.5736958e-16
194	0xa5c018b8	-3.332344e-16
195	0xa4d1c212	-9.096807e-17
196	0x26129265	5.0852327e-16
197	0xa59b0096	-2.688861e-16
198	0xa38a5c24	-1.5001013e-17
199	0x2540931f	1.6703192e-16
200	0x25f623d6	4.269848e-16
201	0x264cf746	7.1111836e-16
202	0x259b8269	2.6976583e-16
203	0xa5d19cbe	-3.6361933e-16
204	0xa601fdd7	-4.5099883e-16
205	0xa5ea5be8	-4.0654807e-16
206	0x24ab9443	7.4410594e-17
207	0xa4ae393d	-7.5557437e-17
208	0xbee1757f	-0.44034955
209	0x3ed3840a	0.41311675
210	0xbe985d76	-0.29758805
211	0x3ee29e56	0.44261426
212	0xbe86b003	-0.2630616
213	0x3edaf213	0.42762813
214	0xbee6effb	-0.45104966
215	0xbedf988c	-0.43671072
216	0xbea614c4	-0.32437718
217	0x3eb21619	0.34782484
218	0xbedafb94	-0.42770064
219	0x3f200131	0.6250182
220	0x3ed1bba5	0.40963474
221	0x3f1ed48e	0.6204308
222	0x3eec30b3	0.46130905
223	0x3eb62e84	0.35582364
224	0xb2b6127f	-2.1196e-08
225	0x330a6573	3.2222896e-08
226	0xb40ecd4f	-1.3299471e-07
227	0x32b86ee5	2.1470848e-08
228	0xb17090f6	-3.5006997e-09
229	0x32ab2fe3	1.9928796e-08
230	0xb2bfc3f6	-2.232444e-08
231	0xb2b48a76	-2.1017723e-08
232	0xb28d93cf	-1.6481776e-08
233	0x36728872	3.6140232e-06
234	0xb2ac0eee	-2.0030225e-08
235	0x382269eb	3.8722454e-05
236	0x32a3f756	1.9088173e-08
237	0x328949a6	1.598239e-08
238	0x32d06240	2.4259066e-08
239	0x3262f0d9	1.3209694e-08
240	0xbac1b664	-0.0014779088
241	0x3ae147f8	0.0017187586
242	0xbb4845ff	-0.00305593
243	0x3abf59b2	0.0014598875
244	0xbb4908fe	-0.0030675526
245	0x3acf57e2	0.0015819038
246	0xbab6a6d4	-0.0013935217
247	0xbac59dbe	-0.0015076918
248	0xbb25c384	-0.0025293538
249	0x3b2b2ba0	0.0026118532
250	0xbacf4ad3	-0.0015815146
251	0x3b166015	0.0022945453
252	0x3ae38824	0.0017359299
253	0x39e60537	0.00043872904
254	0x3aac866e	0.0013162622
255	0x3b11d01a	0.0022249282

r f4 [16, 1]
0	0xbf98af7b	-1.1928552
1	0x3f9d0152	1.2266028
2	0xbfc1760d	-1.5114151
3	0x3f984cab	1.1898397
4	0xbfbe8c8d	-1.4886643
5	0x3f9ae338	1.2100592
6	0xbf96e15d	-1.1787525
7	0xbf994ebb	-1.1977152
8	0xbfaf04bb	-1.3673319
9	0x3fb60804	1.4221196
10	0xbf9adfcf	-1.2099551
11	0x3f85f2e9	1.0464755
12	0x3f9e10d9	1.2348891
13	0x3f7e8149	0.99416023
14	0x3f9527a5	1.1652724
15	0x3fa89904	1.3171697

gru.weight_ih f4 [48, 16]
0	0x0056afb0	7.960877e-39
1	0x12ad322a	1.0930201e-27
2	0x241737ba	3.2790108e-17
3	0x218d1754	9.560707e-19
4	0xa889d262	-1.5301294e-14
5	0xa8dbdf55	-2.4410739e-14
6	0x8041af6c	-6.032237e-39
7	0x004a9c5f	6.851922e-39
8	0x00370bf7	5.055244e-39
9	0x20981a47	2.576719e-19
10	0x9a42161f	-4.013613e-23
11	0x86b816a1	-6.924636e-35
12	0x2e1f4a1e	3.6218244e-11
13	0x8000d10c	-7.4992e-41
14	0x804fa3ae	-7.313721e-39
15	0x12ac524d	1.0875015e-27
16	0x8103c6f0	-2.420363e-38
17	0x010ace42	2.549458e-38
18	0x002ea2c2	4.28282e-39
19	0x80ea5367	-2.1519425e-38
20	0x8010bc77	-1.536976e-39
21	0x00aaa47c	1.567104e-38
22	0x00c205c2	1.7818152e-38
23	0x80ff258c	-2.3431521e-38
24	0x00db56b9	2.0143084e-38
25	0x00c94951	1.8485236e-38
26	0x008b4c1b	1.2792435e-38
27	0x00e2fef9	2.0846289e-38
28	0x80cc37b4	-1.8754424e-38
29	0x80dfe69a	-2.056204e-38
30	0x810d9aba	-2.600862e-38
31	0x00c15717	1.7755493e-38
32	0x2bb0c318	1.2559702e-12
33	0xac64a61d	-3.249296e-12
34	0xac52f7aa	-2.9980276e-12
35	0xaca8ec0a	-4.801053e-12
36	0x2c8d3be4	4.0141102e-12
37	0x2cc25332	5.523048e-12
38	0xabd66d3c	-1.5235933e-12
39	0xacc7673b	-5.667381e-12
40	0xac23a7a2	-2.3256748e-12
41	0xac9ac9fe	-4.399369e-12
42	0x2c6d87fe	3.3755217e-12
43	0x2c241393	2.3316668e-12
44	0xac16f8a8	-2.1454314e-12
45	0x2b8a48f8	9.825743e-13
46	0xaa7aec36	-2.2286413e-13
47	0xacd8caba	-6.1615964e-12
48	0x80bc0ff4	-1.7270796e-38
49	0x80b19fff	-1.6312279e-38
50	0x8094b2e4	-1.3655827e-38
51	0x0107bb89	2.4930134e-38
52	0x005682d3	7.944784e-39
53	0x8011d943	-1.639142e-39
54	0x00f5c026	2.2568626e-38
55	0x80f19682	-2.2186347e-38
56	0x80e2d06b	-2.0829588e-38
57	0x81012024	-2.3716618e-38
58	0x00e93379	2.1416136e-38
59	0x80eab67d	-2.155497e-38
60	0x80cf25c2	-1.9023493e-38
61	0x80a84abe	-1.5455176e-38
62	0x0092c01c	1.3476898e-38
63	0x80fdba45	-2.3301201e-38
64	0x806f9e25	-1.0250472e-38
65	0x80cc5b43	-1.876718e-38
66	0x0034afde	4.838535e-39
67	0x00fbab81	2.3112234e-38
68	0x810f3a3e	-2.630674e-38
69	0x809b7436	-1.427619e-38
70	0x00612706	8.922042e-39
71	0x0031b417	4.564543e-39
72	0x800e5c3f	-1.318789e-39
73	0x8050c9d0	-7.419236e-39
74	0x00de952c	2.0440993e-38
75	0x80fd0a1f	-2.3238011e-38
76	0x00ffddbe	2.3497598e-38
77	0x00d78535	1.9792417e-38
78	0x00a1f54a	1.4873508e-38
79	0x00de8a37	2.0437062e-38
80	0x00744d6c	1.0680691e-38
81	0x80ce9ba0	-1.897394e-38
82	0x006d8e50	1.0061121e-38
83	0x80ebf1d8	-2.1668099e-38
84	0x0083becd	1.2098896e-38
85	0x00cc4bb9	1.8761605e-38
86	0x00e45f71	2.0972731e-38
87	0x00112c13	1.577014e-39
88	0x004d34de	7.090298e-39
89	0x009b395f	1.4255083e-38
90	0x00c3adc3	1.7970256e-38
91	0x80ea8ddf	-2.15404e-38
92	0x00ad2a90	1.590281e-38
93	0x80b2b330	-1.6410999e-38
94	0x0056fef9	7.98932e-39
95	0x8010297e	-1.484253e-39
96	0x1f13af52	3.1273482e-20
97	0x9f7bc1b4	-5.3311545e-20
98	0x1ff14cc1	1.0219445e-19
99	0x9ed1355a	-2.2150801e-20
100	0x1ef09f42	2.5476856e-20
101	0x9c012e20	-4.2742135e-22
102	0x1fda630c	9.249045e-20
103	0x1ec4f3d4	2.0853152e-20
104	0x9ecf1226	-2.1924484e-20
105	0x9dc2c61f	-5.1556225e-21
106	0x9f8c7f39	-5.950278e-20
107	0x203294b0	1.5126383e-19
108	0x1f8a38f8	5.853952e-20
109	0x1f734edd	5.1522486e-20
110	0x9ed4ba66	-2.2523466e-20
111	0x9d4e0baa	-2.7269903e-21
112	0x006dfb3b	1.0100194e-38
113	0x81029cce	-2.398973e-38
114	0x00a47970	1.5104585e-38
115	0x00a7bbb5	1.5403864e-38
116	0x00c76030	1.830977e-38
117	0x0053c7a3	7.693962e-39
118	0x00898d3b	1.2632127e-38
119	0x006687ba	9.41591e-39
120	0x004f26fb	7.268988e-39
121	0x0040e5ef	5.959956e-39
122	0x8046fd69	-6.519391e-39
123	0x00ccb1ad	1.8798179e-38
124	0x80cc4024	-1.875745e-38
125	0x80891b8f	-1.2591349e-38
126	0x80eca55d	-2.1732498e-38
127	0x80ae510c	-1.600845e-38
128	0x801cee6e	-2.656926e-39
129	0x80bef2a7	-1.7535792e-38
130	0x80c759f7	-1.8307537e-38
131	0x00447e1e	6.290056e-39
132	0x801c7c24	-2.615927e-39
133	0x80699fe3	-9.700084e-39
134	0x80efa482	-2.2007698e-38
135	0x808cebd4	-1.2941569e-38
136	0x80fef48d	-2.3413944e-38
137	0x80358570	-4.91515e-39
138	0x8021dba2	-3.109361e-39
139	0x80f73213	-2.2701331e-38
140	0x00146776	1.873825e-39
141	0x8076b77b	-1.0902409e-38
142	0x0089ec09	1.2666136e-38
143	0x00d05c41	1.9134878e-38
144	0x00bf807e	1.7586674e-38
145	0x80866ca3	-1.2344928e-38
146	0x009f2637	1.4615553e-38
147	0x806c4c35	-9.945572e-39
148	0x00ac9229	1.5848138e-38
149	0x004902ea	6.705037e-39
150	0x80135380	-1.774829e-39
151	0x00094522	8.5132e-40
152	0x808fc115	-1.3201741e-38
153	0x8066ea42	-9.451256e-39
154	0x00b71b03	1.6815586e-38
155	0x801a5b1b	-2.420405e-39
156	0x80dbd2fe	-2.0187663e-38
157	0x00786884	1.1057753e-38
158	0x80cc0f14	-1.873985e-38
159	0x8043f966	-6.242446e-39
160	0x0091b553	1.3381194e-38
161	0x00e477e3	2.09815e-38
162	0x80a5fcac	-1.5243498e-38
163	0x80de944a	-2.0440676e-38
164	0x0055ff2f	7.89756e-39
165	0x00e345ba	2.0871671e-38
166	0x00f9a294	2.292536e-38
167	0x80ff103d	-2.3423877e-38
168	0x809d688c	-1.4455677e-38
169	0x00c0988f	1.7687143e-38
170	0x80ba405e	-1.7104493e-38
171	0x00e53e4c	2.1052677e-38
172	0x0086bb5a	1.2373166e-38
173	0x00a4661f	1.5097656e-38
174	0x81087fc3	-2.507092e-38
175	0x80df0bea	-2.048359e-38
176	0xb5076a84	-5.044642e-07
177	0x35832bcd	9.773008e-07
178	0x359a7f8b	1.1511014e-06
179	0x35f86124	1.8505712e-06
180	0xb6078b30	-2.0197585e-06
181	0xb614536a	-2.2102272e-06
182	0x34c0a2e2	3.58813e-07
183	0x35d4ea84	1.5863484e-06
184	0x358c772b	1.0465495e-06
185	0x35e73e5a	1.7228988e-06
186	0xb5d2662d	-1.5675956e-06
187	0xb530c96c	-6.5858217e-07
188	0x364ccea7	3.0518656e-06
189	0xb4bd0962	-3.521082e-07
190	0x339f40fb	7.415834e-08
191	0x35f08726	1.7920727e-06
192	0x01bce704	6.9391784e-38
193	0x8f3320e5	-8.831717e-30
194	0x831c3db0	-4.5915093e-37
195	0x03440577	5.7605497e-37
196	0x03544afb	6.2387274e-37
197	0x024c887e	1.5026724e-37
198	0x8c4533e2	-1.5191941e-31
199	0x832c9e1c	-5.0727758e-37
200	0x82fc02e0	-3.7029722e-37
201	0x8111cb7e	-2.6778292e-38
202	0x832d7109	-5.096989e-37
203	0x86e0d0f5	-8.456647e-35
204	0x8333d8fd	-5.2852463e-37
205	0x818470c0	-4.865093e-38
206	0x002bb3e4	4.013459e-39
207	0x82aa2b75	-2.5004198e-37
208	0x9b367ecb	-1.5095656e-22
209	0x2e2a4f4d	3.8723958e-11
210	0x2e129b03	3.3334235e-11
211	0x347f8bd1	2.379959e-07
212	0xb48262d3	-2.428629e-07
213	0xb603d95f	-1.9647048e-06
214	0x0024cca6	3.379492e-39
215	0x355106a4	7.786823e-07
216	0x2fa2978c	2.957531e-10
217	0x344ae899	1.8897335e-07
218	0xb2c06a0b	-2.2399965e-08
219	0xa66dc08f	-8.248686e-16
220	0x388d1201	6.7267574e-05
221	0x9ae3fefc	-9.429695e-23
222	0x8029598e	-3.797382e-39
223	0x37842556	1.5753012e-05
224	0x1cc9f586	1.3364531e-21
225	0x1ce65e09	1.5244431e-21
226	0x1d72aca5	3.2117688e-21
227	0x1c1d4a2e	5.2042817e-22
228	0x1daca27b	4.569602e-21
229	0x9dccf76c	-5.425418e-21
230	0x9c725bd4	-8.018977e-22
231	0x9d410780	-2.5547215e-21
232	0x9d931fd2	-3.8943477e-21
233	0x1d11a052	1.9273474e-21
234	0x9c581cf0	-7.1505806e-22
235	0x1d18531a	2.0159995e-21
236	0x1e30bb4a	9.356093e-21
237	0x1be41baa	3.7737313e-22
238	0x9b02af8a	-1.0810068e-22
239	0x19a85b00	1.7407547e-23
240	0x9cade51a	-1.1507401e-21
241	0x9d02d468	-1.7315168e-21
242	0x9c54bf2b	-7.0391995e-22
243	0x1ac93798	8.322147e-23
244	0x9bf72b2c	-4.0890621e-22
245	0x1c90582e	9.551915e-22
246	0x9cf0d675	-1.5937304e-21
247	0x1997cf45	1.569675e-23
248	0x1c2ef741	5.789134e-22
249	0x9b87cf73	-2.2467937e-22
250	0x9c877c81	-8.965734e-22
251	0x1d127ff4	1.938909e-21
252	0x9c7e5afa	-8.4159135e-22
253	0x9c74a058	-8.0940067e-22
254	0x9c2e3046	-5.7634163e-22
255	0x9966a0d0	-1.1923197e-23

gru.weight_hh f4 [48, 16]
0	0x80ca2ce5	-1.8566875e-38
1	0x804dea23	-7.155326e-39
2	0x00b9436c	1.7013753e-38
3	0x8020a090	-2.996335e-39
4	0x000272ac	2.24808e-40
5	0x80598d3c	-8.224025e-39
6	0x80093fbb	-8.49382e-40
7	0x80dc15f9	-2.0211691e-38
8	0x00fcf191	2.3229203e-38
9	0x00c3a9b4	1.79688e-38
10	0x00f542b0	2.252362e-38
11	0x809e1509	-1.4517554e-38
12	0x80feff79	-2.3417862e-38
13	0x006f081b	1.0196648e-38
14	0x010fc5c8	2.6406853e-38
15	0x8029f6bf	-3.853771e-39
16	0x80760540	-1.0838472e-38
17	0x80e6f664	-2.1210552e-38
18	0x80ecd481	-2.1749409e-38
19	0x80b199c0	-1.6310038e-38
20	0x01078ca2	2.4896483e-38
21	0x00ba7fc3	1.7127235e-38
22	0x00f0bcd4	2.2108258e-38
23	0x00be73aa	1.7490237e-38
24	0x803e4ffa	-5.722491e-39
25	0x8104b4d0	-2.4374298e-38
26	0x8101d6a8	-2.3847566e-38
27	0x00e7a470	2.1272989e-38
28	0x8063eade	-9.175969e-39
29	0x81019b83	-2.3805132e-38
30	0x80d8fdd9	-1.992753e-38
31	0x80d72b70	-1.9760214e-38
32	0x29cce288	9.098717e-14
33	0x1dd7e7e4	5.7149795e-21
34	0x21c7c708	1.3537448e-18
35	0x9d85c02e	-3.5403516e-21
36	0x1d00a662	1.7026677e-21
37	0x9b8048a1	-2.122276e-22
38	0x1d8e8e3e	3.773416e-21
39	0x9d98ff34	-4.049794e-21
40	0x9d84972c	-3.5096417e-21
41	0x9e33cc1d	-9.518391e-21
42	0x1d754e6b	3.2466021e-21
43	0xa344bf68	-1.0665713e-17
44	0x1da90d84	4.4747902e-21
45	0xa99d73a0	-6.992258e-14
46	0x9cbfd983	-1.2695545e-21
47	0x9b8ea13d	-2.3596127e-22
48	0x80e3ffa4	-2.0938364e-38
49	0x80564900	-7.92404e-39
50	0x8055f1a0	-7.892696e-39
51	0x00d93480	1.9947136e-38
52	0x802a9380	-3.910004e-39
53	0x80e583c0	-2.1077592e-38
54	0x805b7d80	-8.402051e-39
55	0x8050be40	-7.415089e-39
56	0x801d1d67	-2.673777e-39
57	0x80178600	-2.160287e-39
58	0x00bcf480	1.7352783e-38
59	0x00be06c0	1.7451166e-38
60	0x80bfab80	-1.7602102e-38
61	0x80d27a80	-1.9329399e-38
62	0x004ba240	6.945867e-39
63	0x0064cec0	9.257718e-39
64	0x000439a1	3.88015e-40
65	0x00643038	9.200847e-39
66	0x80968a6c	-1.3824981e-38
67	0x800ea8ec	-1.346295e-39
68	0x802dedd8	-4.21792e-39
69	0x8014da6f	-1.915069e-39
70	0x80e9e57d	-2.1479995e-38
71	0x007727ba	1.0942675e-38
72	0x00babe2c	1.7149623e-38
73	0x80ed2e42	-2.1781607e-38
74	0x005a73bb	8.306711e-39
75	0x800bf51a	-1.098116e-39
76	0x80a8a1d2	-1.5486414e-38
77	0x005a0048	8.265296e-39
78	0x0107ae28	2.4920535e-38
79	0x8023560b	-3.245109e-39
80	0x803a8199	-5.37295e-39
81	0x00de7161	2.0428153e-38
82	0x80e0f310	-2.0658346e-38
83	0x810d24a6	-2.5923904e-38
84	0x80c53081	-1.8108993e-38
85	0x80d68568	-1.9700653e-38
86	0x00957508	1.3725472e-38
87	0x01032dc8	2.4093746e-38
88	0x0069111f	9.648869e-39
89	0x80d8b239	-1.9900401e-38
90	0x80fb3063	-2.3068067e-38
91	0x0070150e	1.0293129e-38
92	0x80e76ab0	-2.1252272e-38
93	0x8101ebb5	-2.386267e-38
94	0x00f0016e	2.2041032e-38
95	0x80be169f	-1.7456859e-38
96	0x19954f25	1.5438205e-23
97	0x80ed52f2	-2.1794768e-38
98	0x808043bb	-1.177924e-38
99	0x0078669f	1.1057073e-38
100	0x1ab40251	7.445e-23
101	0x0008b9fb	8.01401e-40
102	0x1062fbf4	4.476474e-29
103	0x8011e731	-1.644139e-39
104	0x007d48fd	1.150562e-38
105	0x00fdc770	2.3305925e-38
106	0x810615a8	-2.462745e-38
107	0x805c4316	-8.472932e-39
108	0x81058fdc	-2.4531456e-38
109	0x9af5ec21	-1.0171111e-22
110	0x00c4d170	1.8074889e-38
111	0x1ab35e66	7.4185174e-23
112	0x00e06014	2.0605617e-38
113	0x00872e4b	1.2414399e-38
114	0x00cef38f	1.9005485e-38
115	0x80eafa41	-2.157928e-38
116	0x007121a6	1.0389482e-38
117	0x00a8e05e	1.5508851e-38
118	0x80336fd5	-4.723728e-39
119	0x00c8ec0b	1.8451775e-38
120	0x0078b311	1.1084496e-38
121	0x00872979	1.241267e-38
122	0x802dd221	-4.207977e-39
123	0x00050443	4.60706e-40
124	0x80e738f2	-2.1234428e-38
125	0x80aad8fd	-1.5689875e-38
126	0x0107aa60	2.4917822e-38
127	0x0045e5b9	6.419058e-39
128	0x00c22405	1.7829008e-38
129	0x00de6544	2.0423807e-38
130	0x8079c429	-1.1182464e-38
131	0x00d5fb70	1.965116e-38
132	0x80bdf9ac	-1.7446474e-38
133	0x80bc8373	-1.7312228e-38
134	0x80ad4c9c	-1.5915023e-38
135	0x01100ffe	2.6460097e-38
136	0x01067390	2.4694825e-38
137	0x80610b56	-8.91211e-39
138	0x804c9710	-7.033689e-39
139	0x00f50608	2.250186e-38
140	0x0046456c	6.453389e-39
141	0x001014b1	1.47679e-39
142	0x806568e8	-9.313018e-39
143	0x80e7c45d	-2.1284441e-38
144	0x81047d71	-2.433457e-38
145	0x00a6d885	1.5322365e-38
146	0x8103e942	-2.4228254e-38
147	0x0022bae8	3.189456e-39
148	0x00bf00ec	1.754091e-38
149	0x810241f4	-2.3924548e-38
150	0x80608092	-8.86233e-39
151	0x001d03b1	2.664554e-39
152	0x81052208	-2.4452658e-38
153	0x81057d0b	-2.4517956e-38
154	0x01001516	2.3525015e-38
155	0x809f0aaf	-1.4605676e-38
156	0x80ea71f9	-2.1530392e-38
157	0x00602667	8.829984e-39
158	0x80c5281e	-1.8105984e-38
159	0x0102d6d0	2.403135e-38
160	0x00182b31	2.219546e-39
161	0x80aa3d54	-1.5634035e-38
162	0x0085ebec	1.2298754e-38
163	0x80019840	-1.46453e-40
164	0x00a182be	1.4832416e-38
165	0x00e6656c	2.1158547e-38
166	0x811003ca	-2.6451341e-38
167	0x802dc340	-4.20264e-39
168	0x00bd54a6	1.7387275e-38
169	0x00f63afd	2.2612693e-38
170	0x007ec084	1.1640334e-38
171	0x80c16d1e	-1.7763395e-38
172	0x00a182be	1.4832416e-38
173	0x00ebdd3c	2.1660706e-38
174	0x80cbbbe5	-1.871001e-38
175	0x00c02876	1.764693e-38
176	0xb2daa3c9	-2.5453021e-08
177	0x9618884c	-1.232147e-25
178	0x2b8c7088	9.978832e-13
179	0x96ee74cf	-3.852469e-25
180	0x15b1b01c	7.176758e-26
181	0x171cdda7	5.0686083e-25
182	0x966c5d55	-1.9093379e-25
183	0x9701a03c	-4.188439e-25
184	0x15cbbe34	8.2291135e-26
185	0x97088bb6	-4.412031e-25
186	0x9755780c	-6.897553e-25
187	0x2e5c5d66	5.0105163e-11
188	0x16087c1b	1.1025153e-25
189	0x330b3d8a	3.241943e-08
190	0x1fb44151	7.634102e-20
191	0x974491b2	-6.351491e-25
192	0x80a3edff	-1.5054563e-38
193	0x00605f8a	8.85048e-39
194	0x0050a86e	7.407261e-39
195	0x801b8294	-2.526401e-39
196	0x802d1d00	-4.143e-39
197	0x80c8ec08	-1.8451771e-38
198	0x010fa11a	2.6380537e-38
199	0x8105e33e	-2.459128e-38
200	0x80204b96	-2.965851e-39
201	0x809522c1	-1.3695956e-38
202	0x01069a7e	2.4722756e-38
203	0x0103c27a	2.420043e-38
204	0x001229c2	1.668019e-39
205	0x00e837ea	2.1325893e-38
206	0x00e5b53a	2.109534e-38
207	0x0057e7fe	8.072911e-39
208	0x80ca17a2	-1.8559248e-38
209	0x0059f575	8.261413e-39
210	0x00dc6449	2.0239785e-38
211	0x8089fd84	-1.2672407e-38
212	0x004bdc26	6.966637e-39
213	0x806dc306	-1.008003e-38
214	0x00c4dcfa	1.8079029e-38
215	0x80e92cd0	-2.1413746e-38
216	0x80423a0a	-6.081963e-39
217	0x80a82e94	-1.5445072e-38
218	0x00be5e8a	1.7482658e-38
219	0x00d76fcd	1.9784738e-38
220	0x808cd10d	-1.2931963e-38
221	0x010be624	2.5695386e-38
222	0x80d7df37	-1.9824706e-38
223	0x80dca283	-2.0262107e-38
224	0x9b3eedae	-1.579323e-22
225	0x97065cc0	-4.34148e-25
226	0x16a392dc	2.6426752e-25
227	0x17214a7e	5.211593e-25
228	0x9510b800	-2.922572e-26
229	0x16ca51ba	3.2686437e-25
230	0x972b4c8a	-5.5349686e-25
231	0x175b3e84	7.084162e-25
232	0x172e3162	5.628476e-25
233	0x977411fe	-7.886336e-25
234	0x1754e955	6.87954e-25
235	0x17993fde	9.903516e-25
236	0x178f092e	9.243476e-25
237	0x1aa4e4fc	6.8198754e-23
238	0x1799c90e	9.938147e-25
239	0x16a0fcee	2.6009015e-25
240	0x94a8ea40	-1.705606e-26
241	0x1288cf26	8.633873e-28
242	0x14fd9d2a	2.5608462e-26
243	0x93e94b40	-5.889167e-27
244	0x14efae94	2.4201692e-26
245	0x14a7412e	1.68884e-26
246	0x94bc7664	-1.9029846e-26
247	0x941cdda0	-7.919695e-27
248	0x14f63c2d	2.4863387e-26
249	0x94c8a856	-2.0261236e-26
250	0x9461c6c0	-1.13987936e-26
251	0x14cee8ee	2.0892559e-26
252	0x13891de9	3.4613156e-27
253	0x98332dbc	-2.3158298e-24
254	0x13b1172f	4.4703942e-27
255	0x94958cd4	-1.5100702e-26

gru.bias_ih f4 [48]
0	0x0001b4b2	1.56657e-40
1	0x80d2a14b	-1.9343315e-38
2	0x2ae34f50	4.0378334e-13
3	0x008c622b	1.2892185e-38
4	0x803bb58d	-5.483422e-39
5	0x800328b7	-2.90112e-40
6	0x1c332ea1	5.92864e-22
7	0x0019f189	2.382534e-39
8	0x8045ca25	-6.409165e-39
9	0x00708123	1.0331901e-38
10	0x0002f0ba	2.70027e-40
11	0xb42f247d	-1.631142e-07
12	0x012103de	2.9573804e-38
13	0x80a3e322	-1.5050666e-38
14	0x1c031bec	4.338035e-22
15	0x977164c0	-7.7998464e-25
16	0xbea973db	-0.33096203
17	0x3a38d6db	0.0007051059
18	0x3d205a61	0.039148692
19	0x2e4df0d8	4.6825516e-11
20	0x3f121421	0.57061964
21	0x383d01e9	4.506289e-05
22	0x3e93efc4	0.28893864
23	0x345a4960	2.0329526e-07
24	0x3bb589b9	0.0055400995
25	0x3ddd6233	0.10809746
26	0x805b7ec4	-8.402505e-39
27	0x39c5e0ae	0.00037742167
28	0xa094409d	-2.5114933e-19
29	0xbed7b2e6	-0.42128676
30	0xbb03295a	-0.002001366
31	0x3cc78596	0.02435569
32	0x3dacb2fc	0.08432576
33	0x802321b0	-3.226327e-39
34	0x3cedab8f	0.02901247
35	0x003c1b72	5.519975e-39
36	0x07e490f0	3.4390814e-34
37	0x0075e299	1.0826041e-38
38	0xba2cd0ec	-0.0006592411
39	0xa4a45dbd	-7.128246e-17
40	0x0007814c	6.89231e-40
41	0x802bafc4	-4.011979e-39
42	0x80c28b08	-1.7865961e-38
43	0x39fa7e30	0.00047777733
44	0x1e9b35e1	1.6433547e-20
45	0xbe31ad5b	-0.17351286
46	0xaa3cd444	-1.6771399e-13
47	0x289ddaad	1.7525337e-14

gru.bias_hh f4 [48]
0	0x0001b4b2	1.56657e-40
1	0x80d2a14b	-1.9343315e-38
2	0x2ae34f50	4.0378334e-13
3	0x008c622b	1.2892185e-38
4	0x803bb58d	-5.483422e-39
5	0x800328b7	-2.90112e-40
6	0x1c332ea1	5.92864e-22
7	0x0019f189	2.382534e-39
8	0x8045ca25	-6.409165e-39
9	0x00708123	1.0331901e-38
10	0x0002f0ba	2.70027e-40
11	0xb42f247d	-1.631142e-07
12	0x012103de	2.9573804e-38
13	0x80a3e322	-1.5050666e-38
14	0x1c031bec	4.338035e-22
15	0x977164c0	-7.7998464e-25
16	0xbea9732a	-0.33095676
17	0x3a38d6db	0.0007051059
18	0x3d205a61	0.039148692
19	0x2e4df0d8	4.6825516e-11
20	0x3f121421	0.57061964
21	0x383d01e9	4.506289e-05
22	0x3e93efc4	0.28893864
23	0x345a4960	2.0329526e-07
24	0x3bb589b9	0.0055400995
25	0x3ddd6233	0.10809746
26	0x805b7ec4	-8.402505e-39
27	0x39c5e0ae	0.00037742167
28	0xa094409d	-2.5114933e-19
29	0xbed7b2e6	-0.42128676
30	0xbb03295a	-0.002001366
31	0x3cc78596	0.02435569
32	0x3da4906e	0.0803536
33	0x00948ac0	1.3641428e-38
34	0x3b2179ed	0.0024639324
35	0x80a359d8	-1.5001416e-38
36	0x8845040f	-5.92873e-34
37	0x80951f5b	-1.3694737e-38
38	0xb64b9cf4	-3.0340716e-06
39	0x05f81ad0	2.3331657e-35
40	0x0029880d	3.814061e-39
41	0x805a1f25	-8.276367e-39
42	0x008b122a	1.277165e-38
43	0x39bdaede	0.00036179175
44	0x9ea818d0	-1.7797954e-20
45	0xbe2b4cab	-0.16728465
46	0xa7c03938	-5.335274e-15
47	0x28293934	9.3937885e-15

linear.weight f4 [16, 128]
0	0xbf7bc05b	-0.98340386
1	0xbd0d43c2	-0.034488447
2	0x3c6d874b	0.014497588
3	0x3e3016b1	0.17196156
4	0xbee651d3	-0.44984302
5	0x3f87852a	1.0587513
6	0xbba98de6	-0.0051743863
7	0xbff57f22	-1.9179423
8	0xbeb45975	-0.352245
9	0xbec93c6b	-0.39303908
10	0x3fcfdbee	1.6238992
11	0x3f04036a	0.5156771
12	0x3e3cb3b9	0.18427934
13	0xbf2da947	-0.6783642
14	0xbef86bee	-0.48519844
15	0x3fe02f88	1.7514505
16	0x3fe76867	1.8078736
17	0xbde265d6	-0.1105458
18	0x3fc00557	1.500163
19	0xbe2e2017	-0.17004429
20	0xbf8f40b1	-1.1191617
21	0xbf088fa3	-0.5334417
22	0xbf39626e	-0.72415817
23	0x3fa29e38	1.2704535
24	0x3e9b62ed	0.30348912
25	0xbe3d046e	-0.18458721
26	0xbd2d88f2	-0.04236693
27	0xbcefb5d3	-0.029261505
28	0x3f0a108c	0.539315
29	0xbf13b6d3	-0.5770084
30	0x3e14f09f	0.14544915
31	0x3ec69168	0.3878281
32	0x3ddabefc	0.10680959
33	0x3f3a9bc8	0.72893953
34	0xbe9f42d9	-0.31105688
35	0xbe402a05	-0.18766029
36	0xbe9441e3	-0.28956518
37	0xbfaa24cf	-1.3292483
38	0xbf3fc89a	-0.7491547
39	0xbee67af3	-0.45015678
40	0xbfdcf8aa	-1.7263386
41	0xbeafd0a0	-0.34338856
42	0xbecc5fda	-0.3991688
43	0xbe292344	-0.16517359
44	0x3e3ba583	0.18324856
45	0xbf8d4851	-1.1037694
46	0xbeb1851c	-0.34671867
47	0x3fd5c1a1	1.6699716
48	0xbfa09a6e	-1.2547128
49	0xbd87ff2c	-0.06640467
50	0x3f22b061	0.6355038
51	0xbeb7a853	-0.3587061
52	0x3b4516da	0.0030073435
53	0xbded82e4	-0.11597231
54	0xbf835e4c	-1.0263152
55	0xbefcb66e	-0.49357933
56	0x3e34cfa6	0.17657337
57	0xbc9b2d9a	-0.018942643
58	0xbfaaa663	-1.3332027
59	0x3ee787ae	0.45220703
60	0x3c868967	0.01642294
61	0x3f220909	0.63295037
62	0xbc3df264	-0.011593435
63	0x3ec6956a	0.3878587
64	0x3fba3698	1.4547911
65	0xbe3df396	-0.18549952
66	0x3da5f04a	0.08102472
67	0x3eed5214	0.46351683
68	0xbed759eb	-0.4206079
69	0x3de8db40	0.113699436
70	0xbfd7b7e8	-1.6852999
71	0x3fca7af2	1.581877
72	0x3ebe6379	0.37185267
73	0xbf035f29	-0.5131708
74	0xbd8bd268	-0.06827241
75	0x3f49bc00	0.7880249
76	0x3e51da94	0.20493537
77	0x3fc548ce	1.5412843
78	0xbfc79978	-1.559371
79	0x3f3f2dc8	0.7467923
80	0xbf1da157	-0.6157431
81	0xbed97c33	-0.4247757
82	0xbd418c7c	-0.047253117
83	0x3f9d50f5	1.2290331
84	0x3f73dfaf	0.9526319
85	0xbe38b134	-0.18036348
86	0xbdf1adeb	-0.1180075
87	0x3cd9247a	0.026506651
88	0x3e1ccc3c	0.15312284
89	0xbff369ae	-1.9016626
90	0x3e5734da	0.21016255
91	0xbe5a97da	-0.2134699
92	0x3fe17843	1.7614826
93	0x3e5fce6f	0.21856092
94	0xbda0472b	-0.07826074
95	0xbe9a76af	-0.30168673
96	0x3e35e9e9	0.17765011
97	0xbfc3d2f1	-1.5298749
98	0x3f0d75b8	0.5525775
99	0xbf218ad4	-0.6310246
100	0xbe83f53e	-0.25773042
101	0x3fa37dec	1.2772803
102	0x3ecc8617	0.39946052
103	0xbe03f7e0	-0.12887526
104	0x3ea3179e	0.31853956
105	0x3f87c219	1.0606109
106	0x3f7b6fed	0.9821766
107	0x3f29a650	0.662694
108	0x3f50261e	0.8130816
109	0xbecfde77	-0.40599415
110	0xbf24d886	-0.6439289
111	0xbe0f3463	-0.13984828
112	0x3e352497	0.17689739
113	0x3ebc237e	0.36745828
114	0xbe83e53c	-0.2576083
115	0x3d034c4f	0.032055195
116	0x3f6cf970	0.9256811
117	0xbfa09216	-1.2544582
118	0x3e90afa0	0.2825899
119	0x3e69ed69	0.22844471
120	0xbe0ee7f4	-0.1395567
121	0x3e7d5d1b	0.24742548
122	0x3fda133d	1.7037121
123	0xbe31f8eb	-0.17380111
124	0xbe2c0614	-0.16799194
125	0x3f0245ce	0.50887764
126	0xbe5dc676	-0.21657738
127	0x3fd37d07	1.652253
128	0x3f9a07c6	1.2033622
129	0xbe3440bb	-0.17602818
130	0x3de4731d	0.111547686
131	0x3e76dd3c	0.24107832
132	0x3f17f8ef	0.5936422
133	0xbee0b0a6	-0.43884772
134	0x3ed8a524	0.42313492
135	0x3f85d9ba	1.045707
136	0x3c4027f2	0.011728274
137	0xbe42d49b	-0.19026415
138	0xbf77ab6b	-0.9674594
139	0x3e82b1f7	0.255264
140	0xbf2a0bfa	-0.66424525
141	0x3d91319e	0.07089542
142	0x3ddaaf3e	0.10677956
143	0xbea9de12	-0.3317724
144	0xbe37dd65	-0.17955549
145	0x3eb0c498	0.3452499
146	0xbf8a6a67	-1.0813721
147	0xbd490534	-0.049077228
148	0x3f812f8f	1.0092639
149	0x3d4b922e	0.049699955
150	0x3f8773b6	1.0582187
151	0xbfbb54da	-1.463527
152	0xbe674c49	-0.22587694
153	0xbe6e6d7e	-0.23283955
154	0x3db58ed2	0.088651314
155	0xbe9c47b1	-0.30523446
156	0xbe4e2c36	-0.20134053
157	0x3e9c616b	0.30543074
158	0x3f2b0366	0.6680206
159	0xbf432973	-0.7623512
160	0x3e972382	0.29519278
161	0xbe2b27cd	-0.16714402
162	0x3da769f3	0.08174505
163	0x3e37592f	0.17905115
164	0xbd0d0d7f	-0.0344367
165	0x3f307c3c	0.68939567
166	0x3eff296f	0.498363
167	0x3e1e34b1	0.15449788
168	0x3ee9d3db	0.45669445
169	0xbe69588a	-0.22787681
170	0x3f311f2e	0.691882
171	0x3f02bf03	0.5107271
172	0xbf451366	-0.76982725
173	0xbd50214a	-0.050812997
174	0xbd57e5e8	-0.05270949
175	0xbf3de1e6	-0.7417282
176	0x3f7996b1	0.9749556
177	0xbcefa285	-0.0292523
178	0xbd471b12	-0.0486098
179	0xbef41ae7	-0.47676775
180	0xbeac18e7	-0.3361275
181	0x3eed39d3	0.4633318
182	0x3f25f2a7	0.64823383
183	0x3e1a8cc5	0.15092762
184	0xbe34730e	-0.17622015
185	0xbe77cf69	-0.24200214
186	0x3f047899	0.5174652
187	0x3e5f9746	0.2183505
188	0xbe85a8b1	-0.26105264
189	0xbef42178	-0.47681785
190	0x3e43ec1e	0.1913304
191	0x3c9e2ee1	0.019309463
192	0xbf6b8151	-0.91994196
193	0x3f0f300c	0.5593269
194	0xbe87fa87	-0.26558325
195	0xbddca1e0	-0.10773063
196	0xbc8f470f	-0.017489938
197	0x3d78f017	0.060775843
198	0x3f401250	0.7502794
199	0xbf667ccd	-0.9003418
200	0xbc866480	-0.016405344
201	0x3f4d9020	0.8029804
202	0x3e5b99a8	0.21445334
203	0xbe8d1f9f	-0.27563187
204	0xbea00c42	-0.31259352
205	0xbf2f4ccd	-0.68476564
206	0x3ffa1c48	1.9539881
207	0xbe56453b	-0.20924847
208	0x3e7be0e9	0.24597515
209	0x3e83ac5d	0.2571744
210	0xbf2d2696	-0.67637
211	0xbdaadc98	-0.08342856
212	0xbeb18829	-0.34674194
213	0xbe2e4942	-0.17020133
214	0xbd48d162	-0.049027808
215	0x3db97b81	0.090567596
216	0xbe984572	-0.29740483
217	0x3f38e14e	0.7221879
218	0xbe323c4b	-0.17405812
219	0x3f708f26	0.9396843
220	0xbf1d9cc7	-0.6156735
221	0x3ea4f179	0.3221548
222	0x3ec8a5e7	0.39189073
223	0x3e47e49a	0.19520798
224	0xbe911c24	-0.28341782
225	0x3f7b1fde	0.980955
226	0xbeeb2fa8	-0.45934796
227	0x3dd06adf	0.10176634
228	0xbe92822a	-0.28614932
229	0xbf287c29	-0.65814453
230	0xbf1aeb15	-0.60514957
231	0xbb82a4f2	-0.003986948
232	0x3ee391c8	0.4444716
233	0xbf073e1f	-0.52829164
234	0xbee539dd	-0.4477071
235	0xbdadc5e5	-0.08485011
236	0xbf254fb6	-0.64574754
237	0x3d971320	0.07376695
238	0x3e1f3751	0.15548445
239	0xbe85cabe	-0.26131243
240	0x3d38ea30	0.045145214
241	0xbf37ce50	-0.7179918
242	0xbd8e4553	-0.06946816
243	0xbdd4d4ba	-0.10392137
244	0xbe9f0fa5	-0.31066623
245	0x3ed87bf9	0.42282084
246	0xbf012ce9	-0.5045915
247	0x3ef34c11	0.47518972
248	0x3dce034e	0.10059224
249	0xbdb48e1d	-0.088161685
250	0xbf33c694	-0.7022488
251	0x3c895e8c	0.016768716
252	0xbde4655a	-0.11152144
253	0xbe7fc623	-0.24977927
254	0x3f2ab487	0.6668171
255	0xbf3ad473	-0.7298042

linear.bias f4 [16]
0	0x3fa4f4f3	1.2887253
1	0x3f413878	0.7547679
2	0xbb902f4a	-0.0044001685
3	0x4031fd58	2.7810879
4	0x3e2d9086	0.16949663
5	0xbf91d8fa	-1.1394341
6	0x3f2ce0a3	0.6753027
7	0xbf7d2db3	-0.98897856
8	0xbbaa9e4d	-0.005206859
9	0x405611d4	3.3448381
10	0x40278ecf	2.6180913
11	0xc01aa1b1	-2.4161189
12	0xc07c9d0e	-3.9470859
13	0xbfc4117c	-1.5317836
14	0xc0141a98	-2.3141232
15	0xbfc98678	-1.5744162

layer1.bias f4 [32]
0	0xbf89148e	-1.0709398
1	0x3f84fbe4	1.0389371
2	0xbf7b075c	-0.98058105
3	0xbf8e1b75	-1.1102129
4	0xbe532ad1	-0.20621802
5	0xbe1c2535	-0.15248568
6	0x3d24561b	0.04012118
7	0xbe90e00a	-0.28295928
8	0xbeccee68	-0.4002564
9	0xbf0f46a9	-0.55967194
10	0xbf98e6c3	-1.1945423
11	0xbf7bc799	-0.98351437
12	0xbf312684	-0.69199395
13	0xbf1bee09	-0.6091009
14	0x3dcccdec	0.10000214
15	0xbefa2394	-0.4885527
16	0xbf9fe8ea	-1.2492955
17	0xbf4ffcd0	-0.81245136
18	0xbeece275	-0.46266523
19	0xbeeae813	-0.45880184
20	0xbe2df50f	-0.16988014
21	0x3f7aeaf7	0.9801478
22	0xbf78fdac	-0.9726207
23	0xbec34126	-0.38135642
24	0x3f5af2ae	0.8552655
25	0xbdd7c798	-0.10536116
26	0xbd35d4a6	-0.04439225
27	0xbe8df0ff	-0.27722928
28	0xbf0d83ce	-0.55279243
29	0xbdd79d6a	-0.10528071
30	0xbf12c78c	-0.57335734
31	0xbde3ccf3	-0.11123075

layer1.lin.weight f4 [32, 32]
0	0xbf32f416	-0.69903696
1	0x3ea2c0f6	0.31787843
2	0xbe0d84ed	-0.13820238
3	0xbf3a94d1	-0.72883326
4	0x3dec5548	0.115397036
5	0xbeb15676	-0.34636277
6	0x3f466e88	0.7751241
7	0x3e680ffc	0.22662348
8	0x3da56ec1	0.08077765
9	0xbeab4f67	-0.33459017
10	0xbe35e4c1	-0.17763044
11	0x3ed8f5bf	0.4237499
12	0x3f2b9f53	0.67039984
13	0xbf37b989	-0.7176748
14	0xbf17b5c6	-0.5926174
15	0x3eaac997	0.33356926
16	0xbf965aff	-1.174652
17	0xa45461b8	-4.6052943e-17
18	0x2431c3bc	3.854655e-17
19	0x253f96f5	1.6617755e-16
20	0xbe853217	-0.26014778
21	0xa4a2c029	-7.058183e-17
22	0xaedc240d	-1.00108456e-10
23	0xa8c22e9c	-2.155854e-14
24	0xa32f1648	-9.491487e-18
25	0xa4318448	-3.8492803e-17
26	0xa2a0b782	-4.3562383e-18
27	0xa4b85302	-7.99379e-17
28	0x24b540bb	7.8605895e-17
29	0x3e1ea307	0.15491877
30	0xa4065e67	-2.913658e-17
31	0x3df7d1ac	0.121005386
32	0xbf37a5c0	-0.7173729
33	0x3f1f84b3	0.6231186
34	0xbec22839	-0.37921312
35	0x3f419175	0.75612575
36	0xbff2e6db	-1.8976701
37	0x3fc96d96	1.5736568
38	0x40229747	2.5404832
39	0xc009673d	-2.1469262
40	0xc0181b7a	-2.376677
41	0x400f167d	2.2357476
42	0x40217c58	2.5232143
43	0x3d1271d6	0.035753094
44	0xc00575c0	-2.085312
45	0xbe4b5dc5	-0.19859989
46	0xc011ddf3	-2.2791717
47	0xc00a697a	-2.1626878
48	0x3db3a60a	0.08771904
49	0xba07c722	-0.00051795144
50	0x3a1a7c60	0.0005893167
51	0x3a033d73	0.000500641
52	0xbca915d9	-0.0206403
53	0xbb041c2e	-0.0020158398
54	0x3bba9d27	0.0056950036
55	0xbb883411	-0.0041565974
56	0xbc310dcb	-0.010806511
57	0x3c3a30bc	0.011364158
58	0x3c17dcd5	0.009268959
59	0xbab13635	-0.0013520183
60	0x34facd2a	4.6715405e-07
61	0x3e9b0f7d	0.30285254
62	0xb7f01650	-2.862062e-05
63	0xbc1754b4	-0.009236503
64	0xbf158919	-0.5841232
65	0x3e296e2b	0.16545932
66	0xbea40100	-0.32032013
67	0xbf02c864	-0.5108702
68	0xbec168d9	-0.37775305
69	0x3e75b9fd	0.2399673
70	0x3bbc803b	0.005752591
71	0xbde46af0	-0.11153209
72	0xbec58c5d	-0.3858365
73	0xbeb94089	-0.3618205
74	0xbc17f37e	-0.009274362
75	0x3ed0b52b	0.4076322
76	0x3e4b4e38	0.19854057
77	0xbe866fd8	-0.26257205
78	0x3ea85aa1	0.32881644
79	0xbd50d478	-0.050983876
80	0xbf80b7af	-1.0056056
81	0xac812a8d	-3.6711246e-12
82	0x0b2b00ff	3.293415e-32
83	0x0bd14cb3	8.0619276e-32
84	0x3bcbd89d	0.0062208907
85	0x88ec77ce	-1.4231899e-33
86	0x0b26f9ba	3.215831e-32
87	0x10ece762	9.344209e-29
88	0x8c0dc903	-1.0922735e-31
89	0x0abf6080	1.842893e-32
90	0x0995373a	3.592238e-33
91	0x8bdc5c67	-8.487995e-32
92	0x06ed2570	8.92045e-35
93	0x3e9511d4	0.29115164
94	0x0a525661	1.0127378e-32
95	0x8bacb79c	-6.6528255e-32
96	0xbf438e11	-0.7638865
97	0x3f11dc89	0.56977135
98	0xbfbda7a8	-1.481679
99	0xbfab32c2	-1.3374865
100	0x3f182215	0.59427005
101	0x3e4f671c	0.20254177
102	0xbf0c75de	-0.5486735
103	0xbbac9a0a	-0.0052673863
104	0x3f34282f	0.70373815
105	0x3eb0f439	0.34561327
106	0x3edd6cad	0.43246976
107	0x3ef25c44	0.47336018
108	0xbf23c367	-0.63970035
109	0xbd879d02	-0.06621744
110	0x3e524c73	0.20536976
111	0xbf21d3e1	-0.63213927
112	0xbfc15505	-1.5104071
113	0x3282adbb	1.5212995e-08
114	0x253fb78d	1.6628799e-16
115	0x25888651	2.3683256e-16
116	0xbe60f4be	-0.21968362
117	0xa56e11b3	-2.0649206e-16
118	0xaf98f51f	-2.7822808e-10
119	0xa2ba0bc0	-5.042784e-18
120	0x25f4c2ab	4.2459165e-16
121	0x25fc8813	4.380724e-16
122	0xa4418d34	-4.1969808e-17
123	0xa5286999	-1.4607455e-16
124	0xa4bb4e44	-8.123091e-17
125	0x3f1cf0d9	0.61305004
126	0xa495cb41	-6.4962775e-17
127	0x3e6ab3f3	0.22920208
128	0xbd54f9b9	-0.051995967
129	0x3d0f6094	0.035004213
130	0xbea8497e	-0.3286857
131	0xbed303bf	-0.41213796
132	0x3edfd615	0.4371802
133	0x3e8a4c58	0.2701137
134	0x3f2ad933	0.6673767
135	0xbf1ca73f	-0.611927
136	0x3e0d2128	0.1378218
137	0xc03ef2c0	-2.9835663
138	0xbfef9824	-1.8718305
139	0x3f6cb52d	0.9246395
140	0x4013ca33	2.3092163
141	0x3ea2d3f3	0.3180233
142	0x3f0a5b34	0.54045415
143	0x3f0c254f	0.5474443
144	0xbe1386d1	-0.14406897
145	0x2194b46c	1.0076627e-18
146	0x21a75969	1.1340027e-18
147	0x25ff1ffe	4.4257127e-16
148	0x3e1d13df	0.15339611
149	0x200c5ebc	1.1889806e-19
150	0xb311589c	-3.3841033e-08
151	0xad75ff46	-1.398332e-11
152	0x1eb9b7e6	1.9663696e-20
153	0x2087f882	2.3034338e-19
154	0x2087179e	2.2885518e-19
155	0xa15a5958	-7.397952e-19
156	0xa0ec5c35	-4.0040973e-19
157	0x3c692c53	0.014231759
158	0x20621b28	1.915193e-19
159	0xa74e71f8	-2.8650025e-15
160	0xbfdc2b8a	-1.7200787
161	0x3f864861	1.0490838
162	0xbf7f0010	-0.9960947
163	0xbfcf2325	-1.61826
164	0xbe260e7a	-0.1621646
165	0xbf14236e	-0.5786656
166	0x3f93814e	1.1523836
167	0xbe7596b4	-0.2398327
168	0xbdffad14	-0.12484184
169	0x3f9b7121	1.2143899
170	0x3fa35dee	1.276304
171	0x3e27a7b6	0.1637257
172	0xbfad1254	-1.3521218
173	0xbf506e1d	-0.8141802
174	0xbd77c0bd	-0.060486544
175	0xbf919aec	-1.1375403
176	0x3d6faec6	0.058516286
177	0xad549040	-1.2082835e-11
178	0x9283f073	-8.326538e-28
179	0x8c824962	-2.0073837e-31
180	0x3d3e2788	0.04642442
181	0x0a358f2c	8.741761e-33
182	0x8c3483c7	-1.3906351e-31
183	0x8cc1f1aa	-2.9881805e-31
184	0x8cce8411	-3.181881e-31
185	0x0c76832b	1.8990623e-31
186	0x087dc520	7.6366137e-34
187	0x1567b09d	4.6789402e-26
188	0x0a51de25	1.0104765e-32
189	0xbebc2cc6	-0.3675291
190	0x9009c965	-2.7173635e-29
191	0x0c95684e	2.301986e-31
192	0x3edf6324	0.43630326
193	0x3b9b74a6	0.00474413
194	0x3cc68fd1	0.024238499
195	0xbee25ade	-0.4420995
196	0xbe9555fd	-0.29167166
197	0x3f46c6bb	0.7764699
198	0xbe4b9d15	-0.19884141
199	0xbf7e25ba	-0.99276316
200	0x3d557d7d	0.052121628
201	0xbfef8ca1	-1.8714792
202	0xbf92ed6a	-1.1478703
203	0x3ee87f0c	0.4540943
204	0x40222d88	2.534029
205	0x3da8ecc6	0.08248286
206	0x3ecad6df	0.3961706
207	0x3fa1616d	1.2607857
208	0x3eea2f19	0.45739058
209	0xa18ff2ac	-9.754292e-19
210	0x24d78323	9.346354e-17
211	0xa58f956d	-2.49078e-16
212	0xbe212d70	-0.1573999
213	0x23fdf5ec	2.7534467e-17
214	0xb3f8685e	-1.1567384e-07
215	0x2529ed1c	1.4738749e-16
216	0xa55a1f3b	-1.8919067e-16
217	0x25e22225	3.9227888e-16
218	0xa3740b33	-1.3229638e-17
219	0x257b4095	2.1792661e-16
220	0xa493c6d8	-6.408794e-17
221	0x3edc9042	0.4307881
222	0xa2a8f9c4	-4.580094e-18
223	0x22995370	4.1559076e-18
224	0xbf377298	-0.7165923
225	0xbc8735be	-0.016505118
226	0xbf06e49a	-0.5269257
227	0x3c918130	0.017761797
228	0xbfada040	-1.356453
229	0x3e2e78cf	0.17038272
230	0x3f0f2c80	0.55927277
231	0x3e0b071a	0.13576928
232	0xbfbf79b1	-1.4959012
233	0xbf7c0b55	-0.9845479
234	0xbf43e41c	-0.7651994
235	0x3f0ae58e	0.5425652
236	0x3f2bc17d	0.67092115
237	0x3e345667	0.17611085
238	0x3f5236ee	0.82115066
239	0xbedfbee4	-0.43700325
240	0xbdc53545	-0.09629301
241	0x006e1e10	1.0112689e-38
242	0x80a21ca0	-1.4887619e-38
243	0x00b6b5d4	1.6779288e-38
244	0x3d5225c7	0.05130556
245	0x00b2f175	1.6433337e-38
246	0x8074ec67	-1.0737723e-38
247	0x80a89baa	-1.5484205e-38
248	0x80b638a6	-1.6734382e-38
249	0x80a22dd5	-1.4893792e-38
250	0x0022d0ad	3.197266e-39
251	0x00264cb7	3.517269e-39
252	0x80aae19a	-1.5692965e-38
253	0x3d50c3e8	0.05096808
254	0x80b08698	-1.621133e-38
255	0x8080725c	-1.1795968e-38

layer2.bias f4 [16]
0	0xbe25e4d7	-0.16200577
1	0xbcb2d847	-0.021831645
2	0xbea86561	-0.32889846
3	0xbdabaeee	-0.083829746
4	0x3f660d1c	0.89863753
5	0x3daafdc4	0.08349183
6	0xbe76832b	-0.24073474
7	0x3f70257c	0.93807197
8	0x3e0bd750	0.13656354
9	0xbf13e041	-0.5776406
10	0xbda39bed	-0.07988725
11	0xbeb52d87	-0.35386297
12	0xbf8ef0e9	-1.116727
13	0xbe32d671	-0.17464615
14	0xbef6a66b	-0.48173842
15	0x3f596d78	0.8493266
