models/temporal_gnn/saved_models/dgd/dgd_EvolveGCN_seed_1024.pth (torch, 914738 bytes, 33 tensors)

feat f4 [771, 128]
00000000: 6765 c73e 5168 1abd 1258 e8bb b18e 9dbd
00000010: 5cfb 2a3d 3a30 993e f31b fdbc 74ad f73d
00000020: e23f 6cbd 40a1 1abd ed55 a03d d5ec 643d
00000030: c884 3fbb dbda 97bd 1f74 2f3c eefa 33ba
00000040: 99c5 0c40 ca54 81bd b755 50bc f8ac 43be
00000050: 240e 18be fdf3 e8bd 2102 f33d 8739 a7bc
00000060: 8f03 bebd 0fb5 7dbd b0f6 543e cc4e 38be
00000070: 2d17 39bd d14d 76bd 853c c6bd e72b c0bd
00000080: 001e 9dbe f70f c3bc 0ad3 98be df49 6dbd
00000090: 093d cf3d 8478 7cbe f4a5 8fbd 0d4a 47be
000000a0: f9d2 323b 33b8 23bd f7b6 e03d d02a 60be
000000b0: 1928 523d 722c 08bc 37a6 993d 2e69 bd3c
000000c0: a6d5 413e e824 623d 1ac8 bcbd 900a 31bd
000000d0: 0e9f 9b3f a9ed 9c3e 2085 2d3e 00f2 b2bd
000000e0: 4c5a f8bd 6cee 5cbe 8efc d53d d355 4e3e
000000f0: 45a9 4fbe 9b00 eabc 48cc 063e 3243 61be
00000100: aa9c a63d 27f8 9ebd c25e 34be 84b0 b73e
00000110: a217 73be e0d8 59be 874e d93d de96 9fbc
00000120: f1a6 4cbd 7c1d 0d3d 9edb c03d 6669 76bf
00000130: d1f6 1ebe 4042 583e 71a0 253e 1069 75bc
00000140: 7531 083e bcb4 0bbe 6647 81bd d257 9ebd
00000150: 41d0 90bf 0449 9fbd a6c7 7a3d aa40 e03d
00000160: a698 15bd 03ac f73d 5719 363e 5dd9 b93d
00000170: b306 023e 926e 333d 3c3b 683d 5d8e 25be
00000180: be61 5c40 b2f6 113e d429 4a3d 17cb 10be
00000190: 7c87 6bbd d5fc 8dbd 2c0d 94bd 0b34 43be
000001a0: 09ff d03c b397 f03f dfdf 113e e142 0d3e
000001b0: a974 77bf 2ed4 06be 8914 42bc ed3c 2f3d
000001c0: 9131 00bd 8762 1e3d e2fd 383e 84fe 72bd
000001d0: 1815 a3bc ab6f 0dbe 1926 a43d 6dcd 04be
000001e0: 4f31 31be 3344 d13b e1be c33d fbc5 a43d
000001f0: c108 6e3d bb1d b93d 506e 5d3e 049c 1ebe
00000200: fee9 683f 7e4f e8be 55ec c6be dd72 b33d
00000210: 51c5 3bbe fca7 373e 6259 30be 4041 653d
00000220: 8d05 943d 7ecd d73d ec05 683d 763a 15be
00000230: 980e ae3d 6af5 213e 3984 803d 1eb3 92be
00000240: 6f12 1c40 c26d eabd 0608 2bbd 5260 ee3d
00000250: 52f9 9e3d 83e5 ce3e 00b4 4f3e 9904 ccbe
00000260: 4a9c 22bd ba08 9c3d 267d 1dbc e637 673b
00000270: d777 683e b748 0fbe 09b1 953d 81ba 44be
00000280: b51e abbd 9625 2e3e be15 1f3e 54f0 d2bd
00000290: d4cc 8a3e 5ff3 753b 91bf 43be e649 e6be
000002a0: 1288 863d 4ace 8dbe b60f 8b3d 0dec 253e
000002b0: 148d ea3d 9c1a 383e 0f9f dfbd bb9c 44be
000002c0: 47f0 5c3c e2e5 0e3d 1590 3fbe 098c 52bf
000002d0: 350a 60bf 4f6e a6be 7f04 e23b a440 a03e
000002e0: 8236 443e c1c0 283d a815 033d 6cad 12bc
000002f0: b8e2 56be a0d7 183d b7ec 443e 6e43 06be
00000300: a5b9 733c fca4 06be dd2c 16be f9c4 2a3e
00000310: db6a 8d3d 3f7d 013e 4a24 973e c690 00be
00000320: 26ae 97bc daf7 253e 7d5b a1be ebfb a83d
00000330: 107f 673e ef71 753e bd9a 103e ad0b 783e
00000340: 05f2 f03c aede c3bb 0ece 71bc 3236 0d3e
00000350: b475 903f 681a 523e c411 083e 02fb 723e
00000360: b616 c23d 0bf9 223e 1729 27be f37d b43d
00000370: 765b 1bbf 2b10 c2bb 1ab4 283e 8807 6fbe
00000380: 6250 95bf 77ba e1bc 7896 b9be b4bd 1c3d
00000390: dd17 acbd e6c7 acbd c1f6 5b3e 21de 12be
000003a0: 289e 993d 1312 fe3f 7638 d2be 02fd a9be
000003b0: 95d5 f73e a3ff f83f b90c 2e3e b438 09be
000003c0: cc8e 05bb df68 bb3d 0a4e 0b3e 1a52 adbd
000003d0: 7d5d abbe ed80 4f3d 66ca 7539 4c8e 0dbe
000003e0: 9d7f cd3c e1c3 33be a5de 44bd ed96 11bf
000003f0: 1ea4 4b3e b6c9 67be f9e9 c13e 7f47 633e
0.3894455 -0.03769714 -0.007090577 -0.07693232 0.04174362 0.29919606 -0.030897116 0.120936304
-0.05767811 -0.037751436 0.07828889 0.055889923 -0.002922343 -0.0741479 0.010708838 -0.00068656995
2.1995604 -0.06315 -0.0127157485 -0.19108951 -0.14849144 -0.11374662 0.118656404 -0.020413173
-0.092780225 -0.06194025 0.20797229 -0.17998809 -0.045188118 -0.060132805 -0.09679512 -0.09383374
-0.3068695 -0.023811324 -0.2984851 -0.057931777 0.101190634 -0.24655348 -0.07014075 -0.19461842
0.0027286394 -0.039970588 0.10972398 -0.21891332 0.05130777 -0.008311378 0.07502406 0.023121443
0.18929157 0.055210978 -0.09217854 -0.043222964 1.2157915 0.3065007 0.16945314 -0.08737564
-0.12126598 -0.21575326 0.104485616 0.20149927 -0.20279415 -0.028564742 0.13163865 -0.21998289
0.0813535 -0.07762175 -0.17614272 0.35876858 -0.23739484 -0.21274137 0.10610681 -0.019481119
-0.049963895 0.034451947 0.09416889 -0.96254575 -0.1552384 0.21119022 0.16174485 -0.014978662
0.13300116 -0.13643163 -0.06312446 -0.07731594 -1.1313554 -0.077775985 0.061225556 0.10949834
-0.03652253 0.120933555 0.17783104 0.09074662 0.12697868 0.04380662 0.056697115 -0.16167589
3.4434657 0.14254263 0.049356297 -0.14139973 -0.057502255 -0.069329895 -0.07229075 -0.19062822
0.025512235 1.8796295 0.14245556 0.13795044 -0.96662384 -0.13166878 -0.011845716 0.042782713
-0.03129727 0.03866818 0.18065599 -0.059324756 -0.01990752 -0.13812129 0.08015079 -0.12968989
-0.17303966 0.006386304 0.09557892 0.08045574 0.058113817 0.09038874 0.21624112 -0.15489203
0.90982044 -0.45373148 -0.38852182 0.08762143 -0.18336989 0.17935175 -0.17221597 0.05597043
0.07227621 0.105372414 0.056646273 -0.14573082 0.08498877 0.15816274 0.062752195 -0.2865228
2.438625 -0.11446716 -0.0417557 0.116394654 0.07762398 0.4040948 0.20283508 -0.39847258
-0.03969983 0.07618852 -0.009612357 0.003528112 0.22701965 -0.13992582 0.073091574 -0.1921177
-0.08355466 0.17006525 0.15535638 -0.10299745 0.27109396 0.0037529094 -0.19116046 -0.44978255
0.06568922 -0.2769645 0.06790106 0.16203327 0.1145269 0.179789 -0.1091901 -0.19200413
0.013485021 0.034887202 -0.18707307 -0.82244927 -0.87515575 -0.32506034 0.0068975086 0.31299317
0.19161418 0.04119945 0.032003075 -0.00895248 -0.20984924 0.03731501 0.19230925 -0.1311166
0.014875804 -0.13148874 -0.14665551 0.16676702 0.06905147 0.12645434 0.29519874 -0.12555227
-0.018515658 0.16207829 -0.31515113 0.082511745 0.22607064 0.23969243 0.14121528 0.24223204
0.029412279 -0.005977473 -0.0147586 0.13790205 1.128592 0.20517886 0.13288027 0.23728564
0.09476988 0.15915315 -0.16324268 0.088130854 -0.60686433 -0.0059223375 0.16474953 -0.23342717
-1.1665156 -0.027554734 -0.3624761 0.038266852 -0.08402989 -0.08436565 0.21480848 -0.14342548
0.07500869 1.9849266 -0.410587 -0.33200842 0.48405138 1.9453014 0.16997041 -0.13400537
-0.0020379303 0.09150862 0.13603988 -0.08462925 -0.33469763 0.050660063 0.0002344042 -0.13823813
0.025085265 -0.1755519 -0.048063893 -0.5687092 0.19886824 -0.2263554 0.3787382 0.22195242

Q f4 [16, 16]
00000000: a277 c6be 6c1f cc3d 9723 893e 503b adbe
00000010: fef3 67be efb8 bf3e b935 5abe ed87 d83e
00000020: 237e b83e 566f 89be fce5 24be 6f09 9d3e
00000030: bd88 d1be 5f42 a93e 1c16 c1bd e515 b33e
00000040: 4673 7e3e 60e5 a7be 4e73 323e 0e86 143e
00000050: c01f 8dbe d72c bf3e 6080 b8bd 9091 cdbe
00000060: b605 b4be ae08 d0be 654b 8e3e e1d5 42be
00000070: 88a4 43bd 6772 b03e 2ed5 5d3e 1c8c 9dbe
00000080: 5273 97be c084 043d 001a d1bd 70d5 81bd
00000090: 8ca4 b7bd be45 a1be c295 c3be 832d 863e
000000a0: 3600 1a3e 94bb 93be 1542 a3be 4228 c0be
000000b0: 9067 99be 008f 0b3d ef8d 9c3e 6e6d d3be
000000c0: 95bb ad3e 00bc 8bbb e6d3 53be d3a8 b53e
000000d0: 5087 4d3d 94bb 883d 5d9e c43e e02f 17bd
000000e0: 3df1 b23e 2a44 39be 5c4c 9ebe 74e4 3abe
000000f0: 5878 9dbe 529a 1d3e bc28 d13d f6e9 7d3e
00000100: c4fc 15be b8c9 6cbe 7cdc c13d 8396 ab3e
00000110: f5dc 76be 8822 21bd 8074 c73b 2022 013d
00000120: 9fb4 9dbe 34c8 a7bd 6019 723c 482c c5be
00000130: 2de5 b5be 6ace 333e e4e8 b5bd 74e6 cdbd
00000140: 0c4b 7bbe 41f2 a93e ac33 c5be f846 b2bd
00000150: 282e b9be 800b 7abd 12af 2bbe 608f 5bbd
00000160: 9d57 803e de4b 94be 4834 503d c039 55bd
00000170: 46eb 153e ec05 d7be 38a5 1d3d bc44 b7be
00000180: f606 c2be 76f4 09be bca3 dbbd 19a4 7ebe
00000190: b7e5 9f3e ace8 a6bd 1abb 4a3e 40c5 003d
000001a0: b235 21be c265 0abe 8247 bdbe 72be b7be
000001b0: 5e5a 4e3e fa0e 73be 8432 cd3d e2a5 26be
000001c0: 573a cd3e 37a7 bc3e aef9 2e3e 1bcd c83e
000001d0: 9c8d cc3d 3c2a 21be 99cc b0be a062 5cbd
000001e0: ce0c 4f3e 6868 a3bd 2449 94bd b4aa 8d3d
000001f0: 4ac7 013e 3bd1 963e 133c a53e 93fa ac3e
00000200: 84f3 acbd e6b5 17be 17a1 9e3e dab9 7b3e
00000210: e8bd bebe 86ee 82be e6f5 b2be ad5e 843e
00000220: 0d79 933e 58b7 9cbe 24c9 d03d ecbe c6be
00000230: bce0 c9bd 4caf 9a3d 8942 ca3e a4d0 a23d
00000240: 96e9 b3be 1ef5 39be 04b0 993d 9fff 823e
00000250: 4c0b e83d 199d 873e bed4 543e e251 babe
00000260: 1c6d a43d 0042 2ebd cef4 343e 04ad 983d
00000270: c262 023e b2e7 94be ced9 84be bccd d03d
00000280: f0e2 81be 8828 8bbe 2fce a33e 47df 873e
00000290: 3227 043e 969e 09be 26b5 cdbe a7c5 6bbe
000002a0: 65f7 82be 0040 603b d2d0 84be 3ddf a2be
000002b0: 356d 8d3e 87db 9e3e db51 9f3e cbe1 cd3e
000002c0: 89f1 b73e d2a6 683e 9d06 bbbe 7e93 573e
000002d0: be58 4d3e 3754 be3e 475f c13e 2f7d a0be
000002e0: ed2f a73e 02f6 673e d228 84be 92a3 71be
000002f0: 71b3 a93e 6e13 8cbe 2a0d 333e a82e 523d
00000300: 45eb a33e 4058 5b3c 987a 99bd 78f4 c6be
00000310: ae56 3fbe 5da7 b63e 80e3 fa3b e017 a4be
00000320: a2ab b5be 642c 49be efbc 92be 02b0 74be
00000330: 01ff 71be 528f 8fbe fe88 0a3e d84b 533d
00000340: c563 64be 273f 84be d422 a83d 4ea1 bbbe
00000350: acb2 16be b2bc 153e c2d6 153e e433 73be
00000360: e08a 04bd f321 b03e 18d9 60bd 7c6d c8bd
00000370: 2abe 323e 324c 0f3e 04c5 e53d e8c5 393d
00000380: c87c 5bbe 0d61 ba3e 401e 40bc 36aa 173e
00000390: 76d2 bbbe 1c38 9d3d 50e1 01be 36e8 213e
000003a0: 0c03 de3d 0c00 60be dc01 ebbd 314b b03e
000003b0: 5393 b03e def6 01be 3fd4 d1be 3211 743e
000003c0: b4a6 99bd a7e2 c83e c72f c03e da9f 98be
000003d0: 5445 7cbe 8de6 c2be 3036 c0be 0816 a6bd
000003e0: 8602 91be db32 d0be cedb 5e3e 8989 dc3e
000003f0: 9841 843d 4321 57be 2cfb eb3d 9457 17be
-0.38763148 0.09966931 0.26784965 -0.33834314 -0.2265167 0.3744578 -0.21309556 0.42291203
0.36033735 -0.26842755 -0.16103357 0.3067126 -0.40924636 0.3305845 -0.09428045 0.34977642
0.24848661 -0.32792187 0.17426798 0.14504263 -0.27563286 0.37338898 -0.090088606 -0.40150118
-0.35160607 -0.40631622 0.27791896 -0.19026901 -0.04776433 0.34462282 0.21663353 -0.30770957
-0.2958017 0.032353163 -0.10210037 -0.06339538 -0.08966932 -0.31498522 -0.38200194 0.26206598
0.15039143 -0.28854048 -0.31886354 -0.37530714 -0.29961824 0.034071922 0.30577037 -0.41294426
0.33932176 -0.0042643547 -0.20686302 0.35480365 0.050177872 0.06676403 0.38402072 -0.03691089
0.34949675 -0.18092409 -0.30917633 -0.1825121 -0.30755877 0.153909 0.102128476 0.2479628
-0.14647204 -0.23123825 0.09465882 0.3351327 -0.24107726 -0.039339572 0.006086886 0.031526685
-0.30801865 -0.081924826 0.014776558 -0.38510346 -0.3552641 0.1755921 -0.08882311 -0.10053721
-0.24540347 0.33192638 -0.38515985 -0.087049425 -0.36168027 -0.061046124 -0.16766003 -0.05360353
0.25066844 -0.28964132 0.05083111 -0.052057028 0.14640531 -0.41996706 0.038487643 -0.35794628
-0.37895936 -0.1347216 -0.10724589 -0.24867286 0.31229946 -0.081498474 0.19797936 0.031438112
-0.1574314 -0.1351538 -0.3696862 -0.35887486 0.2015166 -0.23736182 0.10019401 -0.16274217
0.40083572 0.36846325 0.17087433 0.39218983 0.09987947 -0.15738767 -0.34531096 -0.053804994
0.20219728 -0.07978898 -0.07240513 0.06917325 0.12673679 0.29456505 0.32272395 0.33784923
-0.084448844 -0.14815482 0.30982277 0.24582615 -0.37254262 -0.25572604 -0.3495323 0.25853482
0.28803292 -0.3060863 0.101946145 -0.38817537 -0.09857318 0.075529665 0.39503887 0.07949951
-0.3513915 -0.18159911 0.075042754 0.25585648 0.1133028 0.26487043 0.2078428 -0.36390597
0.080286235 -0.04254341 0.1767151 0.07454875 0.12732986 -0.2908302 -0.25947422 0.10195491
-0.25368452 -0.2717936 0.31993243 0.26537535 0.12905577 -0.13439402 -0.40177268 -0.23024617
-0.25579372 0.0034217834 -0.25940567 -0.31810942 0.2762238 0.3102686 0.31117138 0.4021133
0.35926464 0.22719887 -0.36528483 0.21052358 0.20053384 0.37173626 0.37768003 -0.31345508
0.32653752 0.22652438 -0.25812393 -0.23597553 0.33144715 -0.27358574 0.1748549 0.051314026
0.32015434 0.01338774 -0.07494086 -0.3885839 -0.1868541 0.35674563 0.0076565146 -0.32049465
-0.35482508 -0.1964584 -0.2865977 -0.23895267 -0.23632433 -0.28039032 0.13528821 0.051586002
-0.22303684 -0.2582943 0.08209768 -0.36646503 -0.14716595 0.14622763 0.14632705 -0.23750263
-0.032359004 0.344009 -0.054894537 -0.097865075 0.17455354 0.1399391 0.112192184 0.045354754
-0.21434319 0.3640217 -0.011725962 0.14811024 -0.36684006 0.07676718 -0.12683606 0.15811238
0.10840425 -0.21875018 -0.11474964 0.34432366 0.344874 -0.12691829 -0.40982243 0.23834684
-0.07502499 0.39235422 0.3753645 -0.29809457 -0.24635822 -0.3806652 -0.37541342 -0.08109671
-0.28322238 -0.406638 0.21763536 0.4307368 0.064578235 -0.21008782 0.115225166 -0.14779502

r f4 [16, 1]
00000000: 9f1d 86be e064 a7bd f0c2 973e 2c5a 4a3e
00000010: 1084 103f 035b debe 5067 4b3d 2f75 89be
00000020: e8c4 b3bd 6488 3bbe 14cc 0f3f 44de 823e
00000030: 985c 20be 9074 0abf b0da e13e f0ac f03e
-0.26194474 -0.08173537 0.29640913 0.1976096 0.5645151 -0.4342881 0.049659073 -0.26847216
-0.08777791 -0.18313748 0.56170774 0.255602 -0.15660322 -0.5408411 0.44112158 0.4700694

gru.weight_ih f4 [48, 16]
00000000: 762f 1e3e 2247 163e 3e8b 14be d813 5b3e
00000010: ca94 203e 6409 f83d e093 3dbc 0098 13bb
00000020: cc1a 8fbd c0ab 43be 860a 123e 9c58 74be
00000030: c02e 423e d273 44be 505c 64be b0ca c43c
00000040: dc24 e7bd 24ac d03d eecb 193e 04bd f13d
00000050: 24e8 4b3e 7494 a6bd 282e 79bd 8a8e 123e
00000060: 60eb 0f3e b691 71be 765b 4ebe 3684 773e
00000070: b4a7 c3bd 6060 6c3e cc1b f5bd 10c7 62bd
00000080: 5008 73bd 7ade 193e 6c21 783e a287 47be
00000090: 8029 0a3c ec37 cabd ecfe ea3d e886 cebd
000000a0: 28c3 713e a095 693d 800f 50bb 2058 79be
000000b0: 788c 773d 7ebb 61be 8062 fa3c 4063 393c
000000c0: 4c51 08be a01c 34bc 4ef5 133e 88c4 88bd
000000d0: 185f 163e 20a9 5b3e a29b 2b3e 483c 4f3d
000000e0: 50c2 a2bc 68b4 b73d 062a 5e3e d680 0fbe
000000f0: d0e0 f73c b4d0 4dbe 7ee2 5a3e 80eb 02bd
00000100: 6015 0cbe 003a 823b e2e3 51be b2f3 253e
00000110: 74ad 57be 00a4 d23a 3cee b9bd 38cd 713d
00000120: 0adf 503e a40d 06be 5c4e 453e c85a 72be
00000130: 704e 88bd b87a 513e a058 0f3e 30c9 22be
00000140: 3622 763e 3054 17be ee66 433e 141d 04be
00000150: 501a d43d 1459 f43d 5009 ca3c 8c96 f03d
00000160: e013 5f3e 8a85 603e 0426 01be 5a6b 623e
00000170: d447 743e 7043 d1bc 50d4 083d 9c52 babd
00000180: d020 edbd 6452 0cbe 34e0 c63d 4699 473e
00000190: d48b c03d 7cbc 253e 629f 223e 40e7 02be
000001a0: 7893 8d3d d83d 5dbd 603f 5a3c a827 6c3d
000001b0: 729d 24be bc32 06be 0813 4f3d 6e33 763e
000001c0: 506c 95bd 0e32 7cbe 3e90 753e c4a9 6dbe
000001d0: a877 f6bd f224 3a3e 10de 373e dcf0 40be
000001e0: 98c0 23bd 1a55 52be 40e5 1c3e a099 75be
000001f0: 0020 9eb9 4c11 afbd a437 553e 147f 4dbe
00000200: a011 4c3e 7cd0 f13d ac24 5dbe 2804 24be
00000210: e8e5 44be 4c9f 47be 0011 0abc 041a 2fbe
00000220: d0b3 ddbc a036 0dbe fcb3 673e e45d 1f3e
00000230: 7c34 6cbe 5a96 32be 7c7f 6f3e c0a2 003e
00000240: 80e8 273e 88c2 f7bd 70f3 4f3e 1cdb 7d3e
00000250: 2424 2c3e 38c4 743e 6620 51be 087e 333d
00000260: c00e 743e e01c 76be 7c9a 3a3e 4eb3 023e
00000270: 9a68 56be 506b f63d 669b 443e 44f2 303e
00000280: 3e4f 123e d048 f7bc 1a8e 58be 3493 bc3d
00000290: 8013 b7bd 2881 2fbd ac40 2ebe ee49 2fbe
000002a0: e27b 36be 50a3 323e 18a8 9dbd d87f 6a3d
000002b0: 4809 b7bd 08cd 893d a4cc 27be fedd 50be
000002c0: d80d 423d 0836 393e 4057 803d a061 9ebd
000002d0: 54bf 883d 5e98 433e e655 453e aa85 3c3e
000002e0: 9434 2dbe 4cc7 ccbd cccc 993d 4c57 183e
000002f0: c08a 3dbd 3440 49be fae4 75be e8a5 55be
00000300: 30bf 4abe 069e 56be 106d 1f3e 4660 63be
00000310: 203c 0b3e 1a2f 133e 6021 8d3d c203 0d3e
00000320: 3a69 0dbe c8c0 dfbd b464 f9bd 40fe 2dbd
00000330: 1025 ca3c 00d1 663e 28eb 0b3e 4623 77be
00000340: 1edd 493e 0a6f 5c3e b6df 32be 2073 7abc
00000350: 84ba ac3d 20ec 2a3e 620f 4abe 9042 7b3d
00000360: b8df 813d ba89 06be 92bb 353e 8619 3abe
00000370: 50ce f6bd 3cc9 0c3e a698 283e cc75 42be
00000380: 507c 78bd 24a5 66be 7e40 40be 0c4f 013e
00000390: a46f b13d f80c 15be acf4 a4bd be9f 253e
000003a0: 1c4e f2bd 2877 48bd a01b 7fbe e87d 563d
000003b0: 6858 7c3e 5cc2 e83d d076 db3c 5a53 61be
000003c0: feb2 563e c0d8 4e3d 727a 7cbe 4022 df3b
000003d0: 3ce5 5cbe dc20 39be d451 af3d 74e3 5d3e
000003e0: dc5e 81bd e0b2 1b3c e80c 58bd fe31 19be
000003f0: 8c73 dfbd 8c00 b8bd 80df b2bd 4cfb 7bbe
0.15447792 0.14675573 -0.14506242 0.21394289 0.15681759 0.12111166 -0.011570901 -0.002252102
-0.06987533 -0.19108486 0.14261827 -0.23861927 0.18963146 -0.19184807 -0.2230084 0.02402243
-0.11286327 0.10189083 0.15019199 0.1180363 0.19912773 -0.08133784 -0.060835034 0.14312187
0.14054632 -0.2359074 -0.20152077 0.24171528 -0.09553471 0.23083639 -0.119681925 -0.055365622
-0.0593341 0.15026274 0.242315 -0.19485334 0.008432746 -0.098739475 0.11474404 -0.10084325
0.23609602 0.05702746 -0.003174752 -0.24350023 0.060436696 -0.22044179 0.030564547 0.011315167
-0.13312262 -0.010993153 0.14449045 -0.0667811 0.14684713 0.21451235 0.16758588 0.050594598
-0.019868046 0.08969957 0.21695718 -0.14013991 0.030258566 -0.20099145 0.21375462 -0.03196287
-0.13680029 0.0039741993 -0.20497087 0.16206244 -0.21062261 0.0016070604 -0.09078643 0.059033602
0.20397583 -0.13091141 0.19268173 -0.23667443 -0.06655586 0.2045697 0.13998652 -0.1589706
0.24036488 -0.14778209 0.19082233 -0.12901717 0.10356581 0.11931053 0.024662644 0.117474645
0.21784925 0.21925941 -0.12612158 0.22111264 0.23855525 -0.025544852 0.033405602 -0.09097788
-0.11578524 -0.13703305 0.09710732 0.19492063 0.0940167 0.16185182 0.15881112 -0.12783527
0.06912893 -0.054014057 0.013320774 0.057655007 -0.16075686 -0.13105291 0.05055526 0.24043056
-0.072960496 -0.2462847 0.23980805 -0.23209292 -0.12034541 0.18178156 0.17955804 -0.1884188
-0.039978594 -0.20540276 0.15321827 -0.23984385 -0.0003015995 -0.08548221 0.20822006 -0.20068008
0.19928598 0.11807343 -0.2159602 -0.1601721 -0.19228327 -0.1949436 -0.008426905 -0.17099768
-0.02706328 -0.13790369 0.22627252 0.1556316 -0.23066896 -0.17440167 0.23388475 0.12562084
0.16397285 -0.12097651 0.20307708 0.24790615 0.16810662 0.23902977 -0.20422515 0.043821365
0.23833752 -0.24034452 0.18222994 0.12763712 -0.2093834 0.12032187 0.19199905 0.17279917
0.14288041 -0.030186087 -0.21147957 0.09207764 -0.08939266 -0.042847782 -0.17016858 -0.17118046
-0.17820695 0.17445111 -0.07698077 0.057250828 -0.08937317 0.0672856 -0.16386658 -0.20397183
0.047376484 0.18087018 0.062666416 -0.07733464 0.06677118 0.19101092 0.19271049 0.18410364
-0.16914588 -0.0999895 0.07509765 0.14877051 -0.0462749 -0.19653398 -0.24013129 -0.2086407
-0.19799495 -0.20958719 0.15568948 -0.22204694 0.13597155 0.14373437 0.068911314 0.13770965
-0.13809672 -0.10925442 -0.12177411 -0.0424788 0.024675876 0.22540665 0.13663924 -0.2413455
0.19713256 0.21526733 -0.17468151 -0.015286237 0.084340125 0.16691637 -0.1973243 0.061342776
0.06341499 -0.13138476 0.17747334 -0.18173799 -0.1205107 0.1374864 0.16464481 -0.18990248
-0.06066543 -0.22523934 -0.18774602 0.1262781 0.08663872 -0.14555728 -0.0805448 0.16174218
-0.118313044 -0.04894176 -0.24912882 0.052366167 0.246431 0.11365196 0.026790053 -0.22004452
0.20966718 0.050499678 -0.24656084 0.006809503 -0.21571821 -0.18078941 0.08560529 0.21668798
-0.06316921 0.009503096 -0.052746683 -0.14960477 -0.10910711 -0.08984479 -0.087340355 -0.24607581

gru.weight_hh f4 [48, 16]
00000000: 0830 2fbe 964b 10be 8083 a73d 001b 81bc
00000010: 98e8 4a3d d059 3b3e c81f 173e 5a0c 4d3e
00000020: 7281 64be e677 52be 7416 c83d a082 613c
00000030: e82c 58bd 3a80 20be 5cc2 483e 2816 77be
00000040: fa46 193e 5c6e b73d e07d 07bd 40c6 573e
00000050: c833 4cbe 6cfd 4ebe 2098 4e3d c0b9 21be
00000060: ec89 d03d 68c8 203e ece9 cebd ee73 45be
00000070: c0c8 0e3c 688a 693e fe17 7e3e 9e09 053e
00000080: a854 b23d 489f 12bd d8a5 e5bd 704f a6bc
00000090: eeaf 40be a87a 11bd 7088 043d 301d 4dbd
000000a0: cad1 15be 425d 15be 0cf8 033e c6c3 5c3e
000000b0: c086 df3c 36ac 513e e4f3 bd3d 06e4 37be
000000c0: e0d7 e93d c0b1 09bd 60a5 1b3e 2c31 c8bd
000000d0: f299 143e c8d6 543e 0033 d5bc 90dc a4bd
000000e0: 8850 3fbd b0fc f53d 64b4 393e 3aa3 39be
000000f0: 1c37 d3bd 14c8 b93d 50c1 58be 30e3 f7bd
00000100: bc96 33be d26d 12be e031 05be 8088 59bb
00000110: 927d 2d3e 9e8b 30be 880e 34bd 7a3d 24be
00000120: c4dc f53d 3e40 4d3e f49e 893d e698 2cbe
00000130: c02f d6bb 5e6b 713e aebd 213e 40f6 f63c
00000140: e2e5 023e e674 4b3e 40eb 9b3b a22a 363e
00000150: 8847 d0bd ec85 983d 2e18 1fbe 7cd5 293e
00000160: 4c76 69be 048e d23d 1ef9 5abe acae 6b3e
00000170: c08b 503c 44b0 d2bd 802b 50bb b817 3b3e
00000180: 147e d0bd c662 5f3e 6881 5bbd 74ae d83d
00000190: 94ee 693e 6254 493e f8ca a53d eca8 063e
000001a0: ae63 64be 049a 97bd 5455 36be 36f3 373e
000001b0: 626d 123e a2b3 553e 4849 5f3d 7ed4 29be
000001c0: 780e 583e e8c7 7bbd 30d4 89bd d89e 3dbd
000001d0: c021 f9bd 7292 223e 1c77 14be 36b0 673e
000001e0: 18a7 393d a04c 77be 0845 bc3d 703c 1f3d
000001f0: 84d2 ecbd 38b9 1abe 8053 42bd f887 463e
00000200: e871 26bd 24d6 5cbe 4860 5cbe 86f1 7e3e
00000210: 1c98 b03d 1032 cd3c 70b1 fa3c 1818 ba3d
00000220: 00d7 8fbb 8834 eabd 1062 bf3d 7eb0 493e
00000230: 5c48 e73d 18d7 f3bd 5006 75be f05b 0abe
00000240: d886 503d fcf6 883d a007 bfbc 1051 3fbe
00000250: 1ac8 65be a08c 3fbe 96c6 073e 8cfd 773e
00000260: dec0 13be 78a8 163d 943e 3d3e 16ab 3bbe
00000270: 500a 0ebd e044 063c 0e54 07be 8ca7 aebd
00000280: fadc 59be 8cf4 76be 7851 123d 643b 3f3e
00000290: 5e91 52be 90bd dcbd 9068 22be d84c 81bd
000002a0: 0ca2 493e d0b0 00be 662b 343e 06f6 613e
000002b0: d24a 033e f4bf 303e 5241 053e 6089 793d
000002c0: a4eb 0a3e 106c a13d 8e7a 793e a811 7dbd
000002d0: 40e4 123d e0d9 073c e4bf a2bd 18aa 383e
000002e0: 100d 16be 0eaa 29be 00bb d5bc 6021 18be
000002f0: 7654 463e 1046 a4bc 20a0 25bd 280e 2bbe
00000300: 50d2 4fbd 5a0c 0fbe 1877 0e3d 0007 d33c
00000310: 182e 7c3e 1682 3ebe ec62 61be f035 4bbe
00000320: 28f7 073e 20b4 63bc d869 3bbe f41d 1c3e
00000330: d86e 7dbd 2c21 b73d 28c8 30be 3025 bf3d
00000340: f29b 0c3e f062 08be 387f 623e 481e aebd
00000350: c46a 44be 689c 683d 267a 4b3e d08e a63c
00000360: d0e3 9e3c 106a 69be 003e 943d a45d aa3d
00000370: 1024 a0bc b0c8 bebc 5063 30be 2ceb 1fbe
00000380: 9080 e33d bcf6 50be 62f9 03be 40bf a8bc
00000390: a0b2 c03c ce77 133e 3882 293e 40f6 b5bc
000003a0: 3852 28bd 3ab4 78be 6c15 4cbe d272 303e
000003b0: f68b 17be 1690 283e 444a 5abe 28b3 c23d
000003c0: b0f8 8dbc 9c76 553e 408b cc3c 4078 47bc
000003d0: bcb4 e4bd 8885 69be 805a ac3c eabf 7cbe
000003e0: ac51 9f3d f03f 66be 50bc 2a3e 7c39 5cbe
000003f0: 7c4d c8bd 4804 21bd 7c28 36be 2058 8abd
-0.17108166 -0.14091334 0.081793785 -0.015759945 0.049538225 0.1829598 0.14758217 0.20024243
-0.22315004 -0.2055355 0.097699076 0.013764054 -0.0527772 -0.15673915 0.19605392 -0.24129546
0.14968482 0.08956596 -0.033079028 0.2107172 -0.19941628 -0.2021386 0.050438046 -0.15793514
0.101825565 0.15701449 -0.10103211 -0.19282505 0.008714855 0.22806704 0.2481384 0.1299195
0.08707553 -0.035796434 -0.11213273 -0.02030155 -0.18817112 -0.035517365 0.03235668 -0.050076663
-0.1463081 -0.14586356 0.12887591 0.21559057 0.027285933 0.2047585 0.09275034 -0.17958078
0.11418128 -0.03361678 0.15199804 -0.09775004 0.1451185 0.20785058 -0.026025295 -0.080498815
-0.04670766 0.12011087 0.1813522 -0.18128672 -0.10313246 0.09071365 -0.21167493 -0.121038795
-0.1753797 -0.14299706 -0.13007307 -0.0033192933 0.16942433 -0.1724076 -0.04395917 -0.16039076
0.12004998 0.20044038 0.06719771 -0.16855201 -0.006536454 0.23576114 0.15795013 0.030146718
0.12783006 0.19868812 0.0047582686 0.177897 -0.101698935 0.074474186 -0.15536568 0.16585344
-0.22799033 0.102809936 -0.21384093 0.23015851 0.0127286315 -0.10287526 -0.003176421 0.18270767
-0.101802975 0.21815023 -0.05359021 0.10580149 0.22844917 0.19661096 0.08095354 0.13150376
-0.2230365 -0.07402423 -0.17805988 0.17963871 0.14299539 0.20869306 0.054513246 -0.16584966
0.2109927 -0.061469942 -0.06729925 -0.046294063 -0.121646404 0.15876177 -0.14498562 0.22625813
0.04532537 -0.24150324 0.09192854 0.038875997 -0.1156359 -0.15109718 -0.047442913 0.19387805
-0.040635973 -0.21566063 -0.21521103 0.24896821 0.086227626 0.025048286 0.030602187 0.09086627
-0.0043896437 -0.11435801 0.09344876 0.19696233 0.11293098 -0.1190626 -0.2392819 -0.13511634
0.050909847 0.066877335 -0.023319066 -0.18683267 -0.22439614 -0.18705988 0.13259348 0.24217814
-0.14429042 0.036781758 0.18480903 -0.18326983 -0.034677804 0.008195132 -0.13215658 -0.08528051
-0.21275702 -0.24116725 0.035722226 0.18675 -0.20563266 -0.10778344 -0.158602 -0.06313485
0.19690722 -0.12567449 0.1759468 0.22066507 0.1282151 0.17260724 0.13013199 0.060922027
0.13566452 0.078819394 0.24363157 -0.061784416 0.035862207 0.008291692 -0.079467565 0.18033636
-0.1465342 -0.16568777 -0.026090145 -0.14856482 0.19368157 -0.02005294 -0.04043591 -0.16704619
-0.05073768 -0.13969555 0.034781545 0.025760174 0.24626958 -0.18604311 -0.22010392 -0.19844794
0.13277876 -0.013897926 -0.18302095 0.15245801 -0.061873287 0.08941874 -0.17263854 0.09333265
0.13731363 -0.13318992 0.22118843 -0.085018694 -0.19181353 0.056789786 0.19870815 0.02033177
0.019395739 -0.22794366 0.07238388 0.08318642 -0.019548446 -0.023289055 -0.17225385 -0.15617055
0.11108506 -0.20406622 -0.128881 -0.020599008 0.023522675 0.1440117 0.16553581 -0.022212148
-0.041094035 -0.24287501 -0.19930047 0.172313 -0.14799485 0.16461214 -0.21317393 0.095068276
-0.017330498 0.20846027 0.024968743 -0.012174666 -0.11167285 -0.22804844 0.021039248 -0.24682584
0.077792495 -0.22485328 0.16673398 -0.21506304 -0.09780404 -0.039310724 -0.17788881 -0.0675509

gru.bias_ih f4 [48]
00000000: e0cd 5dbc a080 4fbe 204f 463d 102d 6ebd
00000010: a875 2abd 66d1 083e a447 123e 2440 d3bd
00000020: 984d b7bd fcff 2dbe a03f b63d 2081 aabd
00000030: 343b 4abe 50bb 7f3d aee9 5d3e 647c bc3d
00000040: 381e 913d 4028 703d fc64 7dbe eae6 32be
00000050: 048d d3bd 00b8 47bd d0b5 d9bc eca9 41be
00000060: 70c0 7b3e 1890 143e 0871 79bd 34a8 e63d
00000070: aa1d 403e 400a 3a3d 54dc cc3d 3ab3 433e
00000080: 6029 fb3d 7a79 45be f864 8abd a42a bdbd
00000090: e001 e83d c032 8b3d ded8 0d3e 8a28 503e
000000a0: 30f4 0cbe ac52 d23d c68e 2dbe dc6f 283e
000000b0: d8ff b13d bc7f 0fbe 4047 c0bd d434 ef3d
-0.013537854 -0.2026391 0.048415303 -0.058148444 -0.041616112 0.13361129 0.14285141 -0.10314968
-0.08950347 -0.16992182 0.08898854 -0.0832541 -0.19749147 0.062434494 0.21671173 0.09203413
0.07085842 0.058632135 -0.24745554 -0.17470899 -0.10329631 -0.04875946 -0.026575953 -0.18912476
0.24585128 0.14508092 -0.06089881 0.11262551 0.18761316 0.04541993 0.10002962 0.19111338
0.12263751 -0.19284621 -0.067575395 -0.09236649 0.11328483 0.06796789 0.1385226 0.20327964
-0.13765025 0.10269675 -0.16948995 0.16448921 0.086913764 -0.1401357 -0.0938859 0.11679998

gru.bias_hh f4 [48]
00000000: f4dc 98bd d4b4 e33d a049 9c3d c058 b73c
00000010: feaf 63be 20fa 1bbe a02f 07bd 0abc 2a3e
00000020: b4a4 233e c0ea 0fbe 6c43 463e a037 163c
00000030: 006f ad3b 109f 153d 5220 613e a6f5 343e
00000040: 1834 42be c246 7cbe f456 223e fa3e 743e
00000050: fce5 a33d a085 e6bc f87a cc3d 82df 25be
00000060: 28ed 21bd 507a 443e cc89 6bbe 108f 01be
00000070: 8020 3f3b fc88 b8bd 6eb6 07be e088 23be
00000080: c064 f13b 54ca b4bd 20d9 d63c b209 69be
00000090: 5e5c 353e 00af 7a3c 1893 5fbe 480b 50bd
000000a0: 7409 063e f80d f9bd e040 093d 8016 973b
000000b0: 3049 bbbc eec3 19be 58b9 f5bd 9611 56be
-0.074640185 0.111184746 0.0763123 0.022381186 -0.22235104 -0.15232134 -0.033004403 0.16673294
0.15980798 -0.14054394 0.19361657 0.0091685355 0.0052927732 0.036528647 0.21984985 0.17671832
-0.18965185 -0.24636367 0.15853482 0.23852149 0.080028504 -0.02813989 0.09984392 -0.16198543
-0.03953281 0.19187284 -0.23001784 -0.1265223 0.0029163659 -0.09010503 -0.13253185 -0.15970182
0.0073667467 -0.088276535 0.02622658 -0.22757605 0.17711017 0.015300512 -0.21833456 -0.05079201
0.13089544 -0.121608675 0.033509135 0.0046108365 -0.022862047 -0.15016147 -0.11998242 -0.20905146

linear.weight f4 [16, 128]
00000000: 06a9 253e e07a fc3b 64a2 443e 006d 333e
00000010: 38f1 d13c 9007 a43c 906b 293e b8e7 fe3d
00000020: f625 3a3e 38a5 f6bc 5e42 0c3e 90e0 553d
00000030: 48f1 c43d fcd4 203e a0f2 0c3e e72d aebd
00000040: 00d5 34bb 755e e5bd f783 fcbd ccc3 0d3d
00000050: 2c20 993d 85bf 29be bc68 f9bd e4d4 813d
00000060: 4c06 08be d195 1fbe 2c46 38be 9cff b63d
00000070: 64a1 423e 8880 d53d 9c02 0a3e e380 fcbd
00000080: 9f2f 31be 28e3 97bc 802f 233e 001a c03b
00000090: 2e66 c7bd acc5 9c3d a185 05be 989b 133e
000000a0: 01bb 2fbe efb3 05be fa63 183e f898 1abd
000000b0: fa84 97bd 1617 1dbe 20d6 813d 50fd 9f3c
000000c0: 6a6f fabd 68cd 153e 0eaf 2ebe d07e 8b3d
000000d0: d621 313e c942 d2bd cc5b 443e e99c bfbd
000000e0: 3493 7cbd 202d 8e3c 502f e63d 00de 133b
000000f0: e0a6 76bd e0d7 863b 4017 2bbb e3c4 23be
00000100: 12b1 99bd c29c 0bbe 58bd 163d 349a ef3d
00000110: 45d4 d4bd 43f3 2ebe 8e4d 2c3e 50ec 763d
00000120: 366f 083e a481 2b3e 100e e03c 1882 dbbc
00000130: 80be 97bd ac8f 143e 5290 f0bd 2492 26be
00000140: 9060 743c 70cd b13c a8cc c73d 8922 2bbe
00000150: ec22 0a3e 8054 3b3c 0d15 4dbe 1aca 0e3e
00000160: 5271 4e3e 6062 cbbb 546e 98bd d01c 24bc
00000170: 2c6a 2e3e e0d5 13be b05c 0cbe ac84 2a3d
00000180: c47c b13d 18ca b93d 3007 1f3e 606f 12be
00000190: a82b bbbc a897 ec3c 3ee9 32be 74ed e73d
000001a0: 3447 3a3d b06e 84bc d8bf f9bd f963 1cbe
000001b0: 4caa 06be c013 df3d 44dc bf3d 34e5 1dbd
000001c0: e4ab 01bd a2fa 2d3e f609 2e3e 9e77 243e
000001d0: e03e 5b3d 64d1 313d 8357 d4bd 9875 b43d
000001e0: bd68 31be 5a91 f6bd 8adc b3bd 7b74 21be
000001f0: 1fff f5bd d021 c93d 48a4 b53d 1034 cf3c
00000200: 3257 41be 7035 21bc d82a 4e3d 2026 ed3d
00000210: 40b3 ad3d 88cc 2ebd 9062 9e3c 3cec 8c3d
00000220: 60d8 cb3b 60a1 abbb 78ff d03d 2e4d cbbd
00000230: 8901 1ebe c03a c93c 70ea 083e 34c0 abbd
00000240: b83e 0b3d 7069 373e cb70 ccbd e042 1b3e
00000250: 64aa 86bd 2ca9 093d a855 093e e43b 173e
00000260: 00e5 79ba b00d 3e3d 3cfa 3abe c05e 763d
00000270: 18d3 893d f088 f03d 849a 3b3d 2d27 45be
00000280: bab5 293e 08bc c2bc b0a6 43bc a26b 1a3e
00000290: 0030 353a 3635 3ebe d012 423d 2cf3 183d
000002a0: 72e1 3cbe 74d2 bd3d 8494 263e c08a 1dbc
000002b0: c060 35bc 6479 12be 4409 2cbe 80cd 233c
000002c0: b8cd f13c 508b 193e f454 e53d 7836 473d
000002d0: 68ec de3d 9083 47bc 185d 10be 0e71 2bbe
000002e0: 6ccb 1d3e 8426 b73d 2caf 103d 9495 d23d
000002f0: 1833 20bd 7283 423e f327 13be 787c 363e
00000300: acfc 8bbd 2d16 08be 05ce 2bbe 5cee db3d
00000310: 74f3 833d bcab cf3d 8083 25be 5c1e 073e
00000320: f010 293e 8c83 483e 5c23 143e ec3e 953d
00000330: 1831 063d bea0 1abe 760c 013e 3a14 233e
00000340: 9605 e0bd f078 043e a031 793d b0f2 463c
00000350: 30a7 3bbd 34de cf3d 7c95 c4bd 446a 193e
00000360: aec5 32be 8023 ebbc 9ccf 423e 6790 37be
00000370: cc67 e13d 84a6 223e 6074 bf3d a401 0e3e
00000380: 385f 1ebd 9846 a53c a413 0a3d 6e84 f9bd
00000390: b0a9 b73d 288e a63d 7024 18be ef1e 4fbe
000003a0: d099 3e3c e08a 0a3e 403f 5c3c afa3 adbd
000003b0: 58ca 62bd b067 71bd e073 19bd aa0e 333e
000003c0: bcaf 803d d003 893c b87c c1bc 70c8 203e
000003d0: ec0f 203e d0ff b43c b6f3 17be 3a09 d5bd
000003e0: c080 1dbb f88a 6b3d 3c62 923d 90b6 3d3d
000003f0: 2cd1 2f3e 6014 483d 3085 8ebd f00f 0f3c
0.16177759 0.0077050775 0.19202572 0.17522049 0.025627717 0.020023137 0.16544938 0.124465406
0.18178543 -0.03010808 0.13697192 0.052216113 0.09616333 0.15706247 0.13764429 -0.08504849
-0.0027592778 -0.11199657 -0.12329858 0.034610555 0.074768394 -0.16576965 -0.121781796 0.06339434
-0.13283652 -0.15584494 -0.17995518 0.08935472 0.19006878 0.10424906 0.13477558 -0.12329271
-0.17303322 -0.018540934 0.15936089 0.0058624744 -0.09736286 0.076548904 -0.13039257 0.14414823
-0.1716118 -0.1305692 0.14881888 -0.03774354 -0.0739841 -0.15340838 0.06339669 0.019529969
-0.12228282 0.14629138 -0.17058966 0.06811297 0.17298064 -0.102666445 0.19175643 -0.093561
-0.06166382 0.017355502 0.11239493 0.0022562742 -0.06021774 0.00411509 -0.0026106387 -0.15993075
-0.075044766 -0.13634017 0.036801666 0.11699334 -0.1039205 -0.17084984 0.1682646 0.06028396
0.13323674 0.16748673 0.027350456 -0.026795432 -0.07409382 0.14507931 -0.11746277 -0.16266686
0.0149156 0.021704406 0.09755832 -0.16712393 0.13489884 0.011433721 -0.20027561 0.13944283
0.20160416 -0.0062067956 -0.074429184 -0.010016635 0.17032689 -0.14437056 -0.13707232 0.041630432
0.08666375 0.090717494 0.15530086 -0.14300299 -0.022847965 0.02888091 -0.17471787 0.113245875
0.04547806 -0.016166061 -0.121947944 -0.15272512 -0.131509 0.10892439 0.09368184 -0.038548663
-0.03165807 0.1699014 0.16995987 0.16061255 0.05352676 0.04341258 -0.10368254 0.08811492
-0.1732511 -0.12039442 -0.08782299 -0.1576709 -0.12011551 0.09820902 0.08869225 0.02529338
-0.18880919 -0.009839401 0.050333828 0.115795374 0.08481455 -0.042675525 0.019334108 0.06880996
0.0062208623 -0.0052377433 0.10204977 -0.0992683 -0.15430273 0.024564147 0.13370681 -0.08386269
0.03399536 0.17911315 -0.09982451 0.1516223 -0.06575468 0.0336086 0.13411582 0.1476894
-0.000953272 0.046399772 -0.1825952 0.060148954 0.06729716 0.11744869 0.045801654 -0.19253226
0.1657323 -0.0237713 -0.011941597 0.15080121 0.00069117546 -0.18574986 0.047381222 0.03734128
-0.18445376 0.092686564 0.16267592 -0.0096156 -0.01107043 -0.1430412 -0.1680041 0.0099977255
0.02951704 0.1499455 0.11197844 0.04863593 0.10884935 -0.012177363 -0.14098012 -0.16742346
0.1540963 0.08942893 0.035323307 0.10282436 -0.039111227 0.18995455 -0.14370708 0.17820919
-0.06835303 -0.1328971 -0.16777809 0.10738823 0.064429194 0.101401776 -0.16163445 0.13195175
0.16510367 0.19581431 0.14466614 0.07287392 0.032761663 -0.15100381 0.1260241 0.15925685
-0.109385654 0.12936759 0.06083834 0.012142822 -0.04581374 0.10149804 -0.095988244 0.14981943
-0.17458221 -0.028703451 0.19024509 -0.17926179 0.11006126 0.15883833 0.09348369 0.13867813
-0.038665026 0.020175263 0.033710137 -0.12183462 0.08967912 0.08132583 -0.1485765 -0.20226644
0.011633351 0.13529539 0.013442814 -0.08478486 -0.05536875 -0.058936775 -0.037464023 0.17486063
0.06283519 0.01672545 -0.02361904 0.15701461 0.15631074 0.022094637 -0.14839062 -0.104021505
-0.002403304 0.057505578 0.07147643 0.046316683 0.17169636 0.048847556 -0.06958997 0.008731827

linear.bias f4 [16]
00000000: 9fef 9b3d 8088 f73a d852 12bc 7e97 683d
00000010: df40 863d 2361 a23d a36d 99bd 474a 2fbd
00000020: 92b4 6e3d 92eb 7e3d 861f 2d3d 95a5 aa3d
00000030: 9509 85bd 5b75 44bd 80cb 89bd 5f38 9d3d
0.076140635 0.0018885285 -0.008930884 0.0567851 0.06555342 0.079286836 -0.07491615 -0.042795446
0.058277674 0.062236376 0.04226639 0.083323635 -0.06495968 -0.04796348 -0.06728268 0.076767676

GRCU_layers1.GCN_init_weights f4 [128, 32]
00000000: 81f6 24bf e644 0abf 26ad 67bc a6b8 383e
00000010: 6bdb 87be e5d7 a0be 7c76 92bf f158 023f
00000020: f2b4 7c3e edfd 763e 7033 063d d532 0a3f
00000030: a5e8 6fbf ba71 8a3e 2719 de3d 2225 5a3e
00000040: 43d9 17bd f6e8 adbd 69b6 a23d 8e3b 0cbe
00000050: ca56 703d 88e4 0bbe 1b3a 9a3d b935 333e
00000060: 1d3e e13b 24d4 1d3f 4963 4d3d 7611 063f
00000070: 16dd 49be 718b 0e3e a563 f73f 69af e43e
00000080: 506b cabc df7a 013e 9efb 273e c7a3 f3be
00000090: 4a4b 943d a560 e73d e822 4f3d 561a e7bc
000000a0: 9347 61bd c27d 06be a020 bdbc 47f7 20bf
000000b0: 61d0 84bd 4a8e 18bf b136 333e 11ba 36bc
000000c0: 7be8 4f3e 6aad 63be 977c 5d3c 91ce a6bd
000000d0: b354 9f3e 8579 013f 1686 a9be 51ba b93d
000000e0: 4a70 5f3e 7351 0e3e ce54 f13d a81d 433d
000000f0: 6c39 413d ac6d 5cbc 0d4f 9a3e 6c65 013d
00000100: f8b5 8abc ddeb 89bd 0883 a63d f5a4 063f
00000110: 94b6 64be 0760 853d 95f4 62bd 55ee a93d
00000120: dc5f 7f3d 1248 713d 3cb5 0bbe b58b 2abe
00000130: 502b 4d3d 73c4 083e e6b3 343e d2c5 2c3e
00000140: e5b2 573e e96f 1b3e cc56 c83d 8f90 3dbe
00000150: 99f6 243e 3e99 ea3e 819e adbd 9bc0 8bbe
00000160: 1b68 20bd 2558 df3d b33b 8d3d 098f dbbd
00000170: e8c0 1f3d aaf9 07bc c7b6 8f3c 787a b8bd
00000180: 6ceb 193d a923 04be 0652 11bc 2a88 183e
00000190: a5ed eebd c3b1 a6bd 89d7 253e 87a3 70bd
000001a0: a200 bc3d eb18 a13d 6706 21be 124e 743c
000001b0: c1a6 e9bd 478f 1f3e 5170 863d e827 1f3e
000001c0: 7944 893d 95b4 a2bd f42f 0ebd 88b7 d23d
000001d0: 69ef 19be 3e2d 15bd 8679 5c3d 57d0 a2be
000001e0: 4d67 b5bd 8c7e ec3c 201b 1fbe 24fd 003d
000001f0: 17f8 0a3e 890b 9c3d 5071 16bd 010c e03d
00000200: 91cd 283d 899b 61bb a0ed 1f3d 668b c83d
00000210: 8aa5 ebbd 18f1 ae3d ead3 b3bd f3ee 0b3e
00000220: 93fe 913d aa30 923c f9e9 81bd 9142 61bd
00000230: 17fd 683d 6e00 6b3d 2ee9 023e 8dae b3bc
00000240: 68ed c63d 6e91 0b3e 5bfa 7f3d c3df bebe
00000250: fa31 05be dcb7 a33e 6db3 423c 2456 3cbe
00000260: 5a69 183e ee17 65bc c4f5 1f3d c1ea 1abe
00000270: 718c 9dbd 1ce3 1abe bfa3 5e3d f740 d9bd
00000280: 4c8e a43d 09d6 673e 5525 fcbd ff67 e5be
00000290: bc2c 0e3e d8b3 13be a512 36bd 5241 cebd
000002a0: 5424 6d3e fcec 09bf bdea 883d e098 b13e
000002b0: d1a9 41bc fbf6 2c3e 8af7 95be 8113 00be
000002c0: c808 01be 6392 76be 1f6d dcbd 627f 01bd
000002d0: 0f26 ffbe fe3f b4be 729c 473e 9327 883e
000002e0: d31d 5b3e 5634 e83c 49c1 ebbe db31 023e
000002f0: 8ac5 4bbd b81d cdbe 1609 6a3d eef5 eb3d
00000300: 96c9 b13d 754c 4ebe e9ac 8dbd 5c60 27be
00000310: 40be 7d3d 27d1 13bb 1bb8 a1be 214c b03d
00000320: e34d 44be f15d 86be 2ece 74bc ba29 2e3d
00000330: d05b 7c3d 6a1a f03e ee19 84bc ff29 5b3e
00000340: ed27 d5be 42ca 813d 9664 38be 0fb6 823d
00000350: 105d debd d68d 923e 5e43 043c 02a8 cd3e
00000360: 75d0 a83d 1778 09be 6240 ab3d a38c a4bd
00000370: 94cc ff3e 6bac 373e ee2e adbe d922 8dbe
00000380: 60b0 843d 1e0a 0e3d 15cc 1a3c a0f5 05bd
00000390: 8983 f03d 36ef 1abd 8853 293e 064e fdbc
000003a0: 72b6 06be 19a8 0fbe 1a15 2e3d 605f d0ba
000003b0: 8383 b8bd ba2d 6abd 3b2a a7bd 6a87 d0bd
000003c0: eee2 763c 5015 01be 8baf 69bd 7e0d 7d3d
000003d0: e4a8 c6bc 6ae8 b9bd 74d3 ca3d a97d b23e
000003e0: b492 a7be a9ce 86bc 9e51 a4be 598f b63d
000003f0: 2262 79bc a7ce 923d 2e7e 683d a8b2 6b3e
-0.64438635 -0.5401138 -0.014140403 0.18039188 -0.2653459 -0.31414714 -1.1442409 0.50916964
0.246784 0.24120302 0.0327639 0.53983814 -0.9371436 0.2703989 0.10844641 0.21303228
-0.03707243 -0.084916994 0.07944948 -0.13694593 0.05867652 -0.13661397 0.07530614 0.17500962
0.0068738596 0.61651826 0.050143514 0.52370393 -0.19713244 0.1392038 1.9327284 0.44665077
-0.024709374 0.12644528 0.16404578 -0.4758589 0.07240923 0.1129773 0.0505704 -0.0282108
-0.0549999 -0.1313391 -0.023086846 -0.62877315 -0.064850576 -0.59592116 0.17501332 -0.01115276
0.20303528 -0.22234121 0.013518474 -0.08144868 0.31119308 0.5057605 -0.33110112 0.0906874
0.21820179 0.13898258 0.11783753 0.047635704 0.047173902 -0.013453882 0.30138436 0.031590864
-0.016932473 -0.067344405 0.08130461 0.52595454 -0.22335273 0.065124564 -0.055409033 0.08297411
0.062347278 0.058906622 -0.13643354 -0.16654857 0.050090134 0.1335619 0.17646751 0.16872337
0.21064337 0.15179409 0.0978218 -0.18512176 0.16109695 0.4582004 -0.08477498 -0.27295384
-0.039161783 0.10905484 0.06896152 -0.10720641 0.03900233 -0.008299271 0.01754321 -0.09007734
0.03757803 -0.12904228 -0.008869654 0.14895692 -0.11666421 -0.08139374 0.16195501 -0.0587497
0.09179808 0.07866081 -0.15725099 0.014911192 -0.11408759 0.15582 0.065643914 0.15542567
0.06702513 -0.079445995 -0.0347137 0.10288912 -0.15032734 -0.0364201 0.05382683 -0.31799576
-0.08857594 0.028868936 -0.15537691 0.031491414 0.13571201 0.07619388 -0.036729157 0.109397896
0.04121167 -0.0034424982 0.039044976 0.09792213 -0.115061834 0.08542079 -0.08780654 0.1366537
0.07128634 0.01784547 -0.06343455 -0.054995123 0.05688199 0.057373457 0.12784263 -0.021933818
0.097132504 0.13629696 0.062494617 -0.37280092 -0.13007346 0.3197621 0.011883599 -0.18392235
0.14883938 -0.013982756 0.03905274 -0.15128614 -0.07692803 -0.15125698 0.05435538 -0.10608094
0.080349535 0.22640242 -0.12311808 -0.44805905 0.13884252 -0.14424074 -0.044451375 -0.100710526
0.2315839 -0.53877234 0.06685398 0.34686947 -0.011820273 0.1689109 -0.2929042 -0.1250744
-0.12601006 -0.2407928 -0.10763001 -0.031615622 -0.49833724 -0.35205072 0.19493273 0.26592693
0.21398096 0.028345268 -0.46045902 0.12714331 -0.049748935 -0.40061736 0.05713757 0.11521517
0.086810276 -0.20146354 -0.069177456 -0.16345352 0.061949015 -0.0022555084 -0.31585774 0.086082704
-0.19170336 -0.26243547 -0.014941735 0.042520262 0.061610997 0.46895152 -0.016125645 0.21402739
-0.41632023 0.06337406 -0.1800712 0.06382381 -0.10857594 0.28623837 0.008072702 0.40167242
0.08242885 -0.13424717 0.083618894 -0.08034637 0.49960768 0.17936866 -0.33824867 -0.2756565
0.06478953 0.034677617 0.009448071 -0.03270495 0.11743838 -0.037825786 0.16535771 -0.030920994
-0.13155535 -0.14028968 0.042500593 -0.0015897565 -0.09009459 -0.057172514 -0.08162352 -0.10182078
0.015068753 -0.12605786 -0.057052176 0.061780445 -0.024250455 -0.090775326 0.09903613 0.34861496
-0.32729113 -0.016455965 -0.3209352 0.0891406 -0.015221151 0.07168322 0.05676096 0.2301737

GRCU_layers1.evolve_weights.update.W f4 [128, 128]
00000000: c643 e3be 2c43 97bd 6bd0 2f3d 705d 963d
00000010: b487 e73d df58 b43c b424 623d fc74 a73d
00000020: 0408 3e3d 04ac a4be a0f2 b93d 0fab 823d
00000030: 49d6 c43e 6eaf edbd 5f34 973c 6afe 913e
00000040: 8fa0 4ac0 59a4 dbbd 0040 133c 7929 a0bd
00000050: 346b 47be d9c7 11be 31aa 963d c132 69be
00000060: f3dc 763d a883 39be 915f 4c3e c5be b4bd
00000070: d511 89bd 29a7 ccbd 09f3 7a3d 5672 6c3d
00000080: c28f 0cbe 7e79 70be f613 833d f83c 46be
00000090: 5d21 bd3d 5c11 8c3d a004 a0bd 537c f2bd
000000a0: 85be 073e 5383 293d fb64 233e 1b51 133e
000000b0: 515c a8bd 1849 00be ad37 20be 2763 f83c
000000c0: e180 0cbe 79a2 8e3d cbd8 42be 5dc1 753f
000000d0: e036 263e 8d9b bd3c 205b a63d def8 dcbd
000000e0: 81e5 c3bd 16fa 50be 83f7 9ebd 53e4 d13d
000000f0: 56f1 4c3d 715d 26be a554 a53d b555 9ebd
00000100: 512e 8c3d 275a 11be 6a94 ebbd 99f2 06be
00000110: 6e20 a53d f122 403e 9f7e 023e e6bc 89be
00000120: 6f9b 11bd 5734 443e 92d1 0d3d de57 10bf
00000130: 6555 4a3c 2760 1fbd 5066 9d3e 7452 1dbd
00000140: c37d 96bd 286c 563d 2671 893d aeb3 bc3e
00000150: 1b8a f5bd 53cf 4ebc 606f 11be af81 973e
00000160: 274e 84bc 8a92 6a3e 78d4 11be 5a65 4d3e
00000170: 5f6e a23e 857d e43d 438e b23d a9c8 44be
00000180: 0baf 19be 53af 0abe d26b d2b8 205c 80be
00000190: 8aeb 9bbd 17ab 19be d86c 983d 3772 11be
000001a0: 83e3 80bd 91d3 4b3c bd4b 893e 6783 a73d
000001b0: cef2 6f3f a5a6 0bbe 57fb b1bd a455 eb3d
000001c0: 9151 25bd 083c 5dbd 47ea 9a3e 634b 11be
000001d0: 8898 fbbd dacb 7b3d b8b2 1bbd 8a41 023d
000001e0: c818 1a3e 6086 3f3e d0da f7bd ffbd 3d3e
000001f0: 4cc9 28bd 1f74 473b 0a7f c9bc 5b2a 963d
00000200: 9c32 043f d634 a93e 8806 a6be 4007 f1bc
00000210: 7c1b 73bc 7dc3 083d c174 2b3e 232a d4bc
00000220: 58d5 a3be d580 313e e170 07bf 4faa c5bc
00000230: 1900 ef3d eb51 b7be 9347 91be 3829 583e
00000240: fc7f 30c0 4137 923e 985a cb3d 3a2d 6dbd
00000250: 9d7f ebbd 160c 0cbe 352c bd3e c0fb ae3e
00000260: 14c0 2e3e 2a7e c7bd e5e0 bb3b 2dd6 95be
00000270: 11ce 953d 16e8 81bc 562f c0be 2438 6cbc
00000280: 9e99 003f 46ae 56be b8fe c0bd 058e fc3e
00000290: 293e 763e e05f b3be b5d3 953e ac27 103e
000002a0: 89ca 72be 039c 3abe bedb a33e aaef c5be
000002b0: 2814 b6be 27ce 02bf 293b c53d cc91 b43d
000002c0: cf04 e03d 4357 2fbd 8076 95bd cad4 973f
000002d0: 4836 bb3e 2818 8cbe d981 e63d 8f75 05bd
000002e0: 0e2b abbe b7a0 17be cb77 24be 08f0 6ebe
000002f0: 041c adbe 598a bfbe 3556 cf3d 3f9f d2be
00000300: d37f 573e badb 063f af5c 4e3e 36f7 85be
00000310: 2f8f ed3d 2e72 66bb 12eb aebe 1772 c3be
00000320: 6df6 733e 6e18 cebd bb47 293d f442 debe
00000330: ba3d cabd 8ed1 f0be 15ec d13d 2f70 03bf
00000340: 99e1 c6be a724 aebd 2e07 68be e6d5 af3e
00000350: d95a a5be 47fb 243e f930 113e 40fc 733e
00000360: ca20 12be 7a12 233e 76fe eabd 938b 9a3d
00000370: 3881 9e3e ab60 efbe de40 26be fa04 c8be
00000380: 7706 da3d cc54 583e 17bb 7abe 4a65 60be
00000390: b46d 7d3e 8b6a 153c 005e c7bd 3aed cbbe
000003a0: 9cc1 adbe f280 ff3e 07b8 383d 72ea a73e
000003b0: 7c50 ff3e 2b39 6cbe 7482 ff3e c273 0e3e
000003c0: ddbb ed3e 3c44 9dbe 4c91 0fbc 2c11 76bd
000003d0: c648 33ba 18ec 14bf b773 643e 1a07 073f
000003e0: d50f 12be 162b 343b 3aba 463e d612 df3d
000003f0: 6103 a8be ca29 d83d 4f7d a53e 5376 a5bd
-0.44387645 -0.07385859 0.042923372 0.073420405 0.1130518 0.022015033 0.055210784 0.0817661
0.046394363 -0.32162488 0.0907948 0.06380283 0.38444737 -0.11605726 0.01845759 0.28514415
-3.1660497 -0.10724706 0.008987427 -0.0782041 -0.19474488 -0.14236392 0.0735668 -0.22773267
0.060269307 -0.18116629 0.1995833 -0.08825449 -0.06692854 -0.09992821 0.061266933 0.057726227
-0.13726714 -0.23483846 0.064002916 -0.19359195 0.09234879 0.068392485 -0.07813382 -0.11840119
0.13256271 0.041385006 0.1595649 0.14386408 -0.08220733 -0.12527883 -0.15646239 0.030320717
-0.13721038 0.06964583 -0.19028012 0.95998174 0.1623187 0.023145461 0.081228495 -0.10789655
-0.09565259 -0.204079 -0.07762053 0.102486275 0.050034843 -0.16246583 0.08072785 -0.07731191
0.06844772 -0.14194547 -0.11502917 -0.13178481 0.08062826 0.18763329 0.12743615 -0.2690193
-0.035548624 0.19160591 0.03462369 -0.56384075 0.012349461 -0.038910057 0.3074212 -0.03840871
-0.07348206 0.05234924 0.067110345 0.36855835 -0.11989232 -0.012622672 -0.14202642 0.29591128
-0.016150547 0.22907463 -0.14241207 0.20058194 0.3172483 0.111567535 0.087185405 -0.19217171
-0.1500818 -0.13543443 -0.000100336634 -0.25070286 -0.07613285 -0.15006672 0.07442635 -0.14203726
-0.062933944 0.012440578 0.26815596 0.0817936 0.93729866 -0.13637789 -0.086905174 0.11490944
-0.04036099 -0.05401233 0.30256864 -0.14188914 -0.122849524 0.061473705 -0.038012236 0.031800784
0.15048516 0.18703604 -0.12102282 0.18529509 -0.041207597 0.0030434204 -0.02459671 0.073322974
0.51639724 0.33048123 -0.32426858 -0.029422402 -0.014838096 0.033389557 0.16743757 -0.025898999
-0.31998706 0.17334302 -0.52906615 -0.024129061 0.116699405 -0.35804686 -0.2837492 0.21109474
-2.7578115 0.2855778 0.09929389 -0.05790446 -0.1149895 -0.13676485 0.3694779 0.34176445
0.1706546 -0.09740861 0.0057335966 -0.29264966 0.07314695 -0.015857738 -0.37536114 -0.014417682
0.502344 -0.20964918 -0.09423584 0.49327102 0.2404715 -0.35034084 0.29263082 0.14077634
-0.23710074 -0.18223576 0.32003587 -0.38659412 -0.35562253 -0.51095814 0.096304245 0.08816871
0.10938417 -0.04280783 -0.07297993 1.1861813 0.3656485 -0.2736218 0.11255235 -0.032582816
-0.33431286 -0.14807402 -0.16061322 -0.23333752 -0.33810437 -0.37410238 0.101238646 -0.4113712
0.21044855 0.52679026 0.20152543 -0.2616517 0.11599576 -0.0035163271 -0.3416372 -0.3817298
0.23824473 -0.10063253 0.041328173 -0.43410456 -0.09875055 -0.47034878 0.10250107 -0.51343054
-0.38843992 -0.08503085 -0.22658989 0.3434288 -0.32295874 0.1611148 0.14178838 0.23826694
-0.1427032 0.15925017 -0.11474316 0.07546153 0.3095796 -0.4675344 -0.16235682 -0.39066297
0.10645764 0.21126097 -0.24485432 -0.21913639 0.2474888 0.00911964 -0.09734726 -0.39829427
-0.33936775 0.49903065 0.045097377 0.32796055 0.49866092 -0.23068683 0.49904215 0.13911346
0.4643239 -0.3071612 -0.008762669 -0.06007497 -0.0006839152 -0.5817275 0.22309767 0.5274521
-0.14263852 0.0027491502 0.19406977 0.108922645 -0.32815078 0.10554846 0.32322165 -0.08079209
